final_trail_model_2.pth (torch, 424583 bytes, 8 tensors)

conv1.weight f4 [16, 1, 3, 3]
-0.021101203 -0.10507845 -0.3282043 -0.036034957 0.42160696 0.16181235 -0.33028764 -0.020303965
-0.08655075 0.5175743 0.4758919 0.3790429 -0.25115547 -0.24333167 0.20799914 -0.19494238
-0.36836445 -0.4377966 0.017992161 -0.08804743 -0.3466013 0.2800694 0.3787543 -0.44089416
-0.26264283 0.646361 -0.1303059 -0.02038454 0.17319019 0.290421 -0.4936755 -0.09657639
0.41864383 -0.59736043 -0.06522618 0.48281506 -0.19110127 -0.27515662 -0.06635806 -0.30052793
0.007917686 0.2605528 0.22109932 0.29369643 0.21958941 0.44957876 0.046996564 0.005167255
-0.006321353 0.4930141 0.36107183 -0.54501635 -0.4502531 0.41979012 0.2886955 -0.10471012
-0.06248798 -0.055244148 -0.1823308 0.06277086 -0.17515764 -0.105974354 0.20516244 0.07437691
-0.26027697 -0.40079036 0.16964556 0.03424055 0.184459 0.040875234 0.171436 0.07821148
0.10729204 0.3594803 -0.07936809 0.08239953 0.36213592 -0.11785637 0.34127125 0.13823976
-0.7893041 -0.005170359 -0.15825565 -0.19011155 -0.16866198 0.011921768 -0.16870274 0.07256546
-0.17304616 -0.06679474 -0.4382093 0.38497734 0.011669182 0.20862678 0.17914629 -0.12313117
-0.3540162 0.22764401 -0.18773466 -0.38555887 -0.19350792 0.024093492 -0.047180533 0.060432006
0.2275012 -0.1298589 0.38833725 0.21006238 -0.24465801 -0.2961869 -0.19686303 0.018026548
-0.35915402 -0.16416183 0.5246178 0.32922393 0.23750201 -0.061021738 -0.2559577 0.20243637
0.14827524 0.14702088 0.24823909 0.1308252 0.11331721 -0.17175943 0.32758838 -0.14455833
-0.19253187 0.40777856 -0.2480024 -0.3030461 0.5107934 0.23909767 -0.38931915 0.7028244
0.038590185 -0.38597423 -0.14438911 -0.6101266 0.25896713 0.09258128 -0.3396729 0.541667
00000000: 6edc acbc 5f33 d7bd 650a a8be 6499 13bd
00000010: dedc d73e 23b2 253e 761b a9be 8054 a6bc
00000020: 8541 b1bd c07f 043f 1aa8 f33e e911 c23e
00000030: 7397 80be f02b 79be bafd 543e fa9e 47be
00000040: 449a bcbe e026 e0be 4c64 933c 3652 b4bd
00000050: ba75 b1be 4265 8f3e 15ec c13e e1bc e1be
00000060: 1f79 86be ea77 253f e96e 05be 7bfd a6bc
00000070: c558 313e 10b2 943e 09c3 fcbe d8c9 c5bd
00000080: 7c58 d63e 9dec 18bf 4e95 85bd 8933 f73e
00000090: 0db0 43be 54e1 8cbe bce6 87bd ccde 99be
000000a0: 2fb9 013c 2d67 853e dc67 623e 615f 963e
000000b0: 0cdc 603e 302f e63e 787f 403d 1452 a93b
000000c0: 5a23 cfbb 586c fc3e 68de b83e 3186 0bbf
000000d0: 9387 e6be bbee d63e e6cf 933e 4272 d6bd
000000e0: 65f3 7fbd b047 62bd edb4 3abe 028e 803d
000000f0: 865c 33be 1509 d9bd 1a16 523e ec52 983d
00000100: 0643 85be 6534 cdbe 91b7 2d3e d23f 0c3d
00000110: d2e2 3c3e ca6c 273d eb8c 2f3e 572d a03d
00000120: eebb db3d cd0d b83e bd8b a2bd 16c1 a83d
00000130: e169 b93e ae5e f1bd 1bbb ae3e b98e 0d3e
00000140: d50f 4abf 1d6c a9bb c50d 22be 9aac 42be
00000150: bab5 2cbe 8553 433c 69c0 2cbe 339d 943d
00000160: 0333 31be aecb 88bd f85c e0be c01b c53e
00000170: 1930 3f3c 42a2 553e 2072 373e 322c fcbd
00000180: 9d41 b5be 831b 693e 843d 40be f967 c5be
00000190: f126 46be b75f c53c 6040 41bd 8d87 773d
000001a0: 13f6 683e bbf9 04be 24d4 c63e 981a 573e
000001b0: a187 7abe cfa5 97be 7696 49be 69ac 933c
000001c0: 09e3 b7be 0a1a 28be 5a4d 063f 0a90 a83e
000001d0: ba33 733e eef1 79bd e30c 83be 7b4b 4f3e
000001e0: 77d5 173e a48c 163e 6332 7e3e 0bf7 053e
000001f0: da12 e83d b4e1 2fbe aab9 a73e 1907 14be
00000200: 1327 45be 5ac8 d03e 57f4 7dbe dc28 9bbe
00000210: 5bc3 023f 05d6 743e d754 c7be 4dec 333f
00000220: be10 1e3d 6a9e c5be bdda 13be 4231 1cbf
00000230: 5797 843e 419b bd3d 9be9 adbe b0aa 0a3f

conv1.bias f4 [16]
-0.28342807 -0.028299266 -0.11777422 -0.008802146 -0.07993725 -0.35676977 -0.21371736 -0.03277037
-0.22519031 0.056977455 -0.21286409 -0.07759127 -0.16409501 -0.0498534 -0.026480956 0.004872542
00000000: 7c1d 91be ddd3 e7bc 9c33 f1bd e036 10bc
00000010: 24b6 a3bd 87aa b6be b9d8 5abe 393a 06bd
00000020: 4a98 66be 3161 693d 0bf9 59be 2ce8 9ebd
00000030: 8608 28be 1433 4cbd 97ee d8bc d8a9 9f3b

conv2.weight f4 [32, 16, 3, 3]
-0.06577111 -0.14921856 -0.22334567 0.076120466 -0.17169064 0.18425658 -0.079042785 0.075390086
0.027290963 0.1751962 0.05809699 -0.53138244 0.2529194 0.05664674 -0.20197557 0.47407052
0.31634805 -0.5593108 -0.30607077 0.02015703 0.042593386 0.032081716 -0.14806278 -0.5955297
-0.5742006 -0.3938291 -0.41203105 -0.16602576 -0.21488446 -0.6271123 -0.3067952 -0.4052393
-0.07715132 -0.6590975 -0.38250694 0.019022888 0.2482335 -0.08711726 -0.4718746 0.3076358
-0.41527435 0.21100332 -0.26373035 0.29260975 0.08055761 -0.14608921 0.068502955 -0.30193743
0.28824607 0.05571712 -0.33743653 0.1430668 0.010761554 -0.34171468 0.067751184 0.018644072
0.06728083 -0.15274398 -0.05158354 0.028530315 0.014762581 0.12471685 -0.09598357 -0.020419031
-0.30158144 -0.32753655 0.24181423 -0.24710394 -0.48441273 -0.21978745 -0.106958 -0.23627739
0.093638085 0.16969246 0.062812924 -0.015721235 0.08336623 -0.14844668 -0.18845376 -0.2544056
-0.2939456 -0.03821867 0.044523705 0.050249547 -0.021155233 -0.002629628 -0.034071714 -0.015808722
0.061193537 0.07571737 0.03426151 0.10925041 -0.63227785 -0.0006342556 0.01414816 0.071162194
-0.18888526 0.03234315 0.36415642 0.17828505 -0.10037712 -0.47768277 0.12512966 -0.4003932
0.1866973 -0.23658097 0.23075528 0.1255135 0.19470404 -0.14466423 -0.645422 0.27151853
-0.034178413 -0.6176009 -0.11817209 0.05752801 -0.06713447 0.25210068 0.13262627 -0.31704187
0.37061355 0.06307503 -0.37294334 0.32757288 -0.30390075 0.37795636 0.07298098 0.2575963
0.35153762 0.13643537 0.05933191 0.09583418 -0.11992248 -0.26748574 -0.25643507 -0.067349724
-0.24711595 -0.15312634 0.016033797 -0.067860104 0.083001524 -0.0040586437 0.022062637 -0.39498812
-0.02016089 0.14852317 0.17645036 -0.040645726 0.41072327 -0.14936543 0.2899097 -0.044841357
-0.048449587 0.2756585 0.015919063 0.05570129 0.14338695 0.319621 0.1440542 -0.4121869
-0.18952593 -0.24111024 -0.07731507 0.19593874 -0.26756975 -0.20340876 0.04021784 0.015101989
0.32556617 0.1897126 0.012170126 -0.15349023 -0.0041756867 0.10987183 -0.238904 -0.055324364
0.0028347743 0.1399459 -0.327878 -0.054041833 -0.030253492 0.0887566 0.19902442 -0.6848744
-0.14898841 -0.12623507 0.11036375 0.017713431 0.04272699 0.26595035 -0.16729961 -0.23187953
0.08675264 0.13010919 -0.07879707 -0.04740875 0.26437446 -0.17934486 0.099348895 0.017350953
0.02375461 -0.24618375 -0.17356497 -0.07291236 -0.13984887 -0.20190206 0.00040817435 0.0559246
0.12354976 -0.094813175 -0.14943601 -0.23607466 -0.10770655 0.43008998 0.28564796 0.029097846
0.12969919 0.005534478 0.17498228 -0.13311192 -0.04000754 -0.04511924 0.06938483 -0.054033432
-0.16471334 -0.18513407 -0.12261595 0.07370612 -0.2435459 -0.18875344 -0.09434527 -0.3224083
-0.136934 -0.12814769 -0.10074434 0.052488003 0.13819201 -0.17555407 0.14265673 0.010136165
-0.104220085 -0.219962 -0.30119956 0.07586175 0.13887599 0.046137318 -0.47357437 -0.07987614
-0.12596652 0.21062915 -0.11304749 0.15144786 0.011697654 0.33526602 0.114800006 0.018998293
00000000: 01b3 86bd c0cc 18be bab4 64be 0ce5 9b3d
00000010: accf 2fbe c2ad 3c3e 2fe1 a1bd 1e66 9a3d
00000020: 4c91 df3c a266 333e 1cf7 6d3d ae08 08bf
00000030: a77e 813e 6906 683d afd2 4ebe 5fb9 f23e
00000040: 5ff8 a13e fe2e 0fbf 4fb5 9cbe 5b20 a53c
00000050: 6776 2e3d 1e68 033d c59d 17be a274 18bf
00000060: cffe 12bf f8a3 c9be bcf5 d2be a802 2abe
00000070: ac0a 5cbe 6f8a 20bf 4314 9dbe 877b cfbe
00000080: 8301 9ebd 9dba 28bf f3d7 c3be e3d5 9b3c
00000090: ec30 7e3e 896a b2bd 8c99 f1be 7182 9d3e
000000a0: d79e d4be 4111 583e aa07 87be f2d0 953e
000000b0: 63fb a43d 6998 15be 474b 8c3d 8b97 9abe
000000c0: fd94 933e a337 643d 7bc4 acbe 1a80 123e
000000d0: 3b51 303c 3af5 aebe 22c1 8a3d 74bb 983c
000000e0: 88ca 893d eb68 1cbe 4349 53bd 68b8 e93c
000000f0: c1de 713c 8c6b ff3d 0993 c4bd d045 a7bc
00000100: e268 9abe dfb2 a7be 269e 773e d108 7dbe
00000110: f204 f8be f60f 61be cc0c dbbd b3f2 71be
00000120: 53c5 bf3d dcc3 2d3e 10a4 803d d2c9 80bc
00000130: eabb aa3d 6802 18be 06fa 40be 7341 82be
00000140: 0a80 96be 2e8b 1cbd 7d5e 363d 78d2 4d3d
00000150: bd4d adbc d655 2cbb c88e 0bbd 4b81 81bc
00000160: 13a6 7a3d b511 9b3d cc55 0c3d aebe df3d
00000170: f6dc 21bf 2c44 26ba afcd 673c 7cbd 913d
00000180: 236b 41be 407a 043d b672 ba3e 5b90 363e
00000190: 8592 cdbd d692 f4be fd21 003e 5600 cdbe
000001a0: 942d 3f3e 4842 72be 1d4b 6c3e 9c86 003e
000001b0: 7f60 473e dc22 14be 603a 25bf 7a04 8b3e
000001c0: aafe 0bbd 181b 1ebf 3504 f2bd 7ea2 6b3d
000001d0: cc7d 89bd 5713 813e 2ecf 073e 5053 a2be
000001e0: 0fc1 bd3e 7b2d 813d 6ef2 bebe a2b7 a73e
000001f0: e198 9bbe 7f83 c13e 0d77 953d aae3 833e
00000200: bdfc b33e b7b5 0b3e 0406 733d b644 c43d
00000210: eb99 f5bd e4f3 88be 754b 83be a7ee 89bd
00000220: f70b 7dbe 27cd 1cbe 4f59 833c 3dfa 8abd
00000230: b4fc a93d 5ffe 84bb b4bc b43c e23b cabe
00000240: 7328 a5bc 7516 183e 67af 343e 227c 26bd
00000250: 524a d23e 40f3 18be 0b6f 943e 92ab 37bd
00000260: 1373 46bd 1c23 8d3e b268 823c 0927 643d
00000270: 07d4 123e 5da5 a33e f282 133e 290a d3be
00000280: 1613 42be 9ae5 76be 5d57 9ebd 2aa4 483e
00000290: e7fe 88be 634a 50be 76bb 243d 556e 773c
000002a0: 9cb0 a63e 0544 423e 3565 473c 8b2c 1dbe
000002b0: 33d4 88bb 7b04 e13d 40a3 74be cd9b 62bd
000002c0: 9fc7 393b fa4d 0f3e a0df a7be f85a 5dbd
000002d0: 2cd6 f7bc 05c6 b53d 0fcd 4b3e ee53 2fbf
000002e0: 6b90 18be c443 01be 6406 e23d c21b 913c
000002f0: 7f02 2f3d a52a 883e 9750 2bbe d471 6dbe
00000300: 5eab b13d 583b 053e 5c60 a1bd ad2f 42bd
00000310: 175c 873e 2ea6 37be 6f77 cb3d 9623 8e3c
00000320: 0799 c23c 9817 7cbe 04bb 31be 1353 95bd
00000330: 8b34 0fbe 6abf 4ebe 3c00 d639 3211 653d
00000340: a807 fd3d 692d c2bd c105 19be 8ebd 71be
00000350: 4095 dcbd c134 dc3e 7340 923e 9b5e ee3c
00000360: ddcf 043e 915a b53b 8e2e 333e 7e4e 08be
00000370: f2de 23bd f4ce 38bd a219 8e3d 2952 5dbd
00000380: 9daa 28be c993 3dbe 121e fbbd 3cf3 963d
00000390: 1964 79be 9548 41be 1838 c1bd b312 a5be
000003a0: 6d38 0cbe 2639 03be 0c53 cebd a9fd 563d
000003b0: 3582 0d3e 72c4 33be 9b14 123e 2812 263c
000003c0: 5771 d5bd b83d 61be d436 9abe 685d 9b3d
000003d0: 8235 0e3e 7cfa 3c3d 5778 f2be 1a96 a3bd
000003e0: 5efd 00be 2baf 573e 7185 e7bd 2615 1b3e
000003f0: 84a7 3f3c fda7 ab3e 441c eb3d 4fa2 9b3c

conv2.bias f4 [32]
0.051360153 -0.21608876 -0.11514929 -0.1435454 -0.08233655 -0.056784786 -0.040799282 -0.1332394
-0.14880084 -0.1645828 0.014226252 0.046082944 0.03340109 -0.118292145 -0.13425314 -0.13831675
-0.014600933 -0.1891483 -0.10241103 -0.10141821 0.073541485 0.008325309 -0.227244 0.04998699
-0.09448547 -0.18831484 0.0035710568 0.015797257 -0.3260793 -0.16260763 -0.0021721092 -0.072551176
00000000: 065f 523d 5f46 5dbe 64d3 ebbd 91fd 12be
00000010: 11a0 a8bd 2a97 68bd 261d 27bd e96f 08be
00000020: 3f5f 18be 6588 28be 3a15 693c 78c1 3c3d
00000030: 95cf 083d 2743 f2bd a879 09be e8a2 0dbe
00000040: c038 6fbc 18b0 41be e0bc d1bd 5ab4 cfbd
00000050: eb9c 963d e066 083c a7b2 68be 28bf 4c3d
00000060: 9981 c1bd 9bd5 40be 6408 6a3b 4069 813c
00000070: def3 a6be 9d82 26be f259 0ebb b695 94bd

fc1.weight f4 [64, 1568]
-0.33145136 6.480168e-05 0.1741358 -0.15314955 0.19378065 0.26656064 0.5402686 0.05296903
0.15920414 0.23886882 0.15361567 0.049631037 -0.27791655 -0.18482529 0.15837564 0.43172136
0.10855652 0.16140273 -0.034944367 -0.063626125 -0.3108493 0.20971696 0.59946823 0.101584144
0.23421314 0.08708423 0.18555444 0.122181036 0.071239814 0.16771531 0.14613257 0.18091461
0.3331177 0.1524548 0.045804225 0.13368036 0.020043379 0.012213753 0.2727135 0.24729443
0.016966976 0.33888897 0.010910174 0.7232514 0.06344162 0.272359 -0.17616044 0.019837912
0.34254745 -0.021618407 0.17183478 -0.044691987 -0.06167551 0.09618913 -0.19098784 0.20177433
0.09040526 -0.32210815 -0.117720686 -0.07497051 0.32046092 0.26515055 0.11815136 -0.022394124
-0.09444628 -0.101715624 0.07103796 0.10507254 -0.05921125 -0.45356637 0.19302672 -0.05573055
0.06790245 0.070260294 0.1537346 -0.19383414 -0.2698254 -0.07982952 -0.085557304 0.16722284
-0.014824637 -0.12617414 -0.10361094 0.043958742 -0.055882107 -0.20103252 -0.034246583 0.026172502
-0.049310636 0.18992369 0.2918861 0.068949826 0.033694644 0.06843129 0.07825827 0.15735425
0.011765039 -0.11700328 0.22405665 0.10900735 -0.17417774 -0.1444693 -0.02267008 0.03570248
0.2601749 0.12992798 0.20899802 -0.00078209303 0.0916776 0.35881945 0.08673472 0.07044707
0.32087684 0.044751428 0.25676894 0.29352206 0.35743427 0.10596116 -0.075413555 0.07374288
0.3032802 0.29648957 0.3889214 0.26973623 -0.095232196 -0.038237702 -0.26241034 0.18193121
0.26520753 0.23698871 0.01566105 -0.29725802 0.02854893 -0.09897574 0.3124693 0.25779173
-0.120327845 -0.552251 -0.26212698 -0.1216456 0.0799007 0.22030903 0.1848948 0.025663491
-0.11423141 -0.053274557 -0.3298819 -0.023670968 -0.062067077 -0.094803594 -0.0691045 -0.4575743
-0.09983481 0.13751426 -0.08076688 -0.21607278 -0.22911866 -0.10407415 -0.12009442 0.07961526
0.2107321 -0.14413261 -0.039728675 -0.23953228 0.24506713 0.109908774 0.19308203 -0.025076592
-0.042474613 0.007696498 0.033163037 0.2139709 0.109437235 0.09559136 -0.23560636 0.14977607
0.11236363 0.07931688 0.06243239 0.08714363 -0.010148816 -0.017960392 0.06886538 0.027579773
0.015382618 0.080548376 0.12202159 0.12129837 -0.004382179 -0.35965666 -0.1220053 0.15147604
0.16305342 0.18649122 -0.2282664 0.22441389 0.33147237 0.09257249 0.017181419 -0.21797854
0.13334596 -0.068491854 0.18059365 0.087171786 -0.033626325 -0.16219392 -0.041701812 0.041829024
0.11948845 0.19934453 0.18859449 0.14347327 -0.20034055 0.042779088 0.14020967 -0.12733677
0.13608249 -0.0023488123 0.051550895 0.08455017 0.045632515 0.09078133 -0.088942796 0.016535673
-0.2226586 -0.08096978 -0.039171547 0.13545005 -0.040962134 0.1058938 -0.01163716 -0.059122857
0.0013385753 0.038400117 0.3725417 0.033537414 -0.07001893 0.011722262 -0.137518 0.14482456
0.03501209 -0.11013828 -0.16595429 -0.20746174 0.3153042 0.31676394 -0.08779555 0.03550691
0.06605969 -0.009529438 0.18453419 0.15153256 0.067296915 -0.062198084 0.007358895 0.19079341
00000000: feb3 a9be 23e6 8738 a850 323e 3cd3 1cbe
00000010: 6f6e 463e a37a 883e 0b4f 0a3f 0ef6 583d
00000020: 6906 233e 079a 743e 6d4d 1d3e ea49 4b3d
00000030: 144b 8ebe d742 3dbe 392d 223e 950a dd3e
00000040: e152 de3d c246 253e d321 0fbd 6a4e 82bd
00000050: a427 9fbe 0bc0 563e c076 193f 590b d03d
00000060: 92d5 6f3e 3759 b23d fc01 3e3e 0d3a fa3d
00000070: 2ee6 913d 90bd 2b3e c7a3 153e ae41 393e
00000080: 678e aa3e 1c1d 1c3e 369d 3b3d 81e3 083e
00000090: 0332 a43c 311c 483c 1ba1 8b3e c03a 7d3e
000000a0: 54fe 8a3c db82 ad3e 96c0 323c 0127 393f
000000b0: aeed 813d a472 8b3e 6763 34be 1e83 a23c
000000c0: 6162 af3e 1619 b1bc 75f5 2f3e f20e 37bd
000000d0: 769f 7cbd cefe c43d 5192 43be ee9d 4e3e
000000e0: 6526 b93d 5ceb a4be 8b17 f1bd 248a 99bd
000000f0: 7413 a43e d0c1 873e 57f9 f13d e273 b7bc
00000100: 0d6d c1bd 4850 d0bd 5a7c 913d 4630 d73d
00000110: 7f87 72bd da39 e8be cca8 453e b845 64bd
00000120: 7110 8b3d a1e4 8f3d 9a6c 1d3e 757c 46be
00000130: 8e26 8abe a97d a3bd ab38 afbd 773c 2b3e
00000140: 09e3 72bc cb33 01be f931 d4bd 150e 343d
00000150: a3e4 64bd 78db 4dbe 2546 0cbd b767 d63c
00000160: f3f9 49bd 5b7b 423e 1872 953e 9135 8d3d
00000170: 6503 0a3d b425 8c3d df45 a03d 7921 213e
00000180: 26c2 403c 6a9f efbd 1b6f 653e 3f3f df3d
00000190: a65b 32be c3ef 13be 9bb6 b9bc c33c 123d
000001a0: a535 853e d70b 053e 9403 563e 6005 4dba
000001b0: 77c1 bb3d 2fb7 b73e f9a1 b13d 8e46 903d
000001c0: f849 a43e 464d 373d 3877 833e 8648 963e
000001d0: a001 b73e 2a02 d93d 6c72 9abd 8206 973d
000001e0: 8b47 9b3e 7bcd 973e b520 c73e de1a 8a3e
000001f0: 1909 c3bd 239f 1cbd a65a 86be 2d4c 3a3e
00000200: 48c9 873e 2bad 723e 9a4b 803c 3432 98be
00000210: 72df e93c cbb3 cabd fafb 9f3e 47fd 833e
00000220: 726e f6bd 5260 0dbf 8235 86be 5421 f9bd
00000230: faa2 a33d b198 613e 1055 3d3e 3e3c d23c
00000240: 28f2 e9bd 6c36 5abd 48e6 a8be 9ee9 c1bc
00000250: 0c3a 7ebd 6328 c2bd a986 8dbd 2e47 eabe
00000260: 3176 ccbd 8ad0 0c3e 1b69 a5bd 2f42 5dbe
00000270: 159e 6abe d424 d5bd 10f4 f5bd 530d a33d
00000280: 28ca 573e 8097 13be 89ba 22bd f347 75be
00000290: e1f2 7a3e da17 e13d 4cb7 453e 6d6d cdbc
000002a0: dcf9 2dbd e832 fc3b f7d5 073d 301b 5b3e
000002b0: a120 e03d 67c5 c33d cb42 71be e65e 193e
000002c0: e71e e63d e370 a23d 1bb9 7f3d 5c78 b23d
000002d0: 3847 26bc ac21 93bc 4b09 8d3d faee e13c
000002e0: 6007 7c3c 8cf6 a43d 75e6 f93d 486b f83d
000002f0: 6298 8fbb eb24 b8be eadd f9bd 891c 1b3e
00000300: 7af7 263e 8ef7 3e3e abbe 69be c1cc 653e
00000310: bfb6 a93e a596 bd3d 0cc0 8c3c c435 5fbe
00000320: d88b 083e 7545 8cbd 8bed 383e 1f87 b23d
00000330: c2bb 09bd 2a16 26be 85cf 2abd e954 2b3d
00000340: 5cb6 f43d f920 4c3e ea1e 413e a8ea 123e
00000350: 1326 4dbe 2039 2f3d 2093 0f3e 9264 02be
00000360: 3559 0b3e 88ee 19bb 0827 533d a428 ad3d
00000370: 29e9 3a3d 90eb b93d a427 b6bd d275 873c
00000380: 9e00 64be 7cd3 a5bd 5872 20bd 6bb3 0a3e
00000390: e9c7 27bd d9de d83d c9a9 3ebc cf2a 72bd
000003a0: 2273 af3a 7149 1d3d c9bd be3e 875e 093d
000003b0: 1666 8fbd bb0e 403c 85d1 0cbe e44c 143e
000003c0: d668 0f3d 2e90 e1bd ecef 29be da70 54be
000003d0: 8d6f a13e e22e a23e 27ce b3bd b26f 113d
000003e0: 4e4a 873d 5c21 1cbc 88f6 3c3e 5a2b 1b3e
000003f0: f7d2 893d 6bc3 7ebd e322 f13b 595f 433e

fc1.bias f4 [64]
0.33135074 0.06739766 -0.039593942 -0.007221415 -0.003556752 -0.028297355 0.043165866 -0.017769117
0.09407903 0.0017130359 -0.21183553 0.16120312 -0.08387011 0.32828012 -0.010518463 -0.073502764
-0.013259845 -0.01849648 0.17440978 -0.028387832 -0.047888245 -0.008196945 0.0027357838 0.06892477
0.34929878 0.1465829 -0.345246 -0.20555878 -0.04398114 0.09117484 0.17688395 -0.0283279
-0.20685036 -0.03494038 0.33036682 0.18114656 -0.021603659 0.18660389 -0.05325867 0.41783124
-0.020423075 -0.034319244 -0.12736718 0.2146524 -0.100665934 0.007240401 0.010377668 0.02410967
-0.14083782 -0.0023398392 -0.014262289 0.16001144 -0.09889935 -0.018048432 -0.041996237 -0.06517031
-0.035766467 -0.063824914 0.16127689 0.06311558 -0.13551931 -0.026417788 -0.21211335 0.17777842
00000000: cea6 a93e c907 8a3d 422d 22bd 9fa1 ecbb
00000010: 6618 69bb dbcf e7bc b1ce 303d 8a90 91bc
00000020: 82ac c03d f287 e03a 6aeb 58be 6e12 253e
00000030: 18c4 abbd 5514 a83e a255 2cbc 9e88 96bd
00000040: d23f 59bc ee85 97bc 7a98 323e 998d e8bc
00000050: 7726 44bd 7b4c 06bc d64a 333b 6e28 8d3d
00000060: 4ad7 b23e d419 163e 15c4 b0be 007e 52be
00000070: 9125 34bd e0b9 ba3d 1121 353e ea0f e8bc
00000080: 95d0 53be a51d 0fbd d725 a93e 7c7e 393e
00000090: 28fa b0bc 1715 3f3e c325 5abd faed d53e
000000a0: 4b4e a7bc 5692 0cbd 8b6c 02be d7cd 5b3e
000000b0: f129 cebd e340 ed3b 1807 2a3c a581 c53c
000000c0: ca37 10be fd57 19bb 60ac 69bc 0ada 233e
000000d0: be8b cabd 4eda 93bc 3f04 2cbd 0378 85bd
000000e0: dc7f 12bd a3b6 82bd c525 253e be42 813d
000000f0: 93c5 0abe 1e6a d8bc 3e34 59be 8c0b 363e

fc2.weight f4 [3, 64]
0.0539422 0.05266268 0.07892102 0.06817059 0.09174797 0.06451608 -0.03853661 0.112063974
-0.09056801 -0.034722164 -0.12660907 0.031035261 -0.10086464 -0.092804424 0.012150452 -0.035997868
-0.0025832355 -0.025941506 -0.17330475 -0.062445357 0.036786422 0.006548688 -0.0747491 -0.17955305
0.10049815 -0.05390859 -0.05692208 0.11153773 -0.09177536 0.07757124 -0.026892044 0.08557938
-0.12596598 -0.08992925 -0.13298976 0.026632437 -0.053186283 -0.1352397 -0.06817089 0.074492656
0.03573061 0.08331048 0.0035702412 -0.014621688 -0.026296392 -0.041836884 0.11694334 -0.069372
-0.14057343 -0.06917071 0.07154741 0.13570917 -0.04496727 -0.05381927 0.01274325 -0.016031874
-0.12492858 0.060540695 0.0028348723 0.10496712 -0.14505662 0.04568094 -0.120703004 -0.06955892
-0.0010447843 0.055863995 0.029815018 0.10353871 0.0862336 0.08471586 0.010477276 -0.076171234
-0.055703323 -0.080650136 -0.017786644 0.01974458 0.111097574 0.12116621 0.08410983 0.08845405
-0.1097877 -0.054017738 0.027425695 0.04919955 0.0924311 -0.07020953 -0.12124959 0.02004476
-0.09124224 0.13470663 -0.07587586 0.09376 0.077080354 0.123575285 0.064985715 -0.0300771
0.09793013 -0.105480134 0.01711093 0.106063776 0.111771286 -0.07862944 -0.036333784 0.15078801
-0.0875423 0.099555515 0.026404377 -0.07578233 0.10013397 0.088822134 -0.04086066 -0.034416363
-0.0026408515 -0.0141278505 -0.07352558 -0.01934256 0.014212522 -0.05154252 -0.07580085 -0.1250297
0.08233869 -0.072458684 -0.036846608 -0.08503872 0.10331794 -0.07110961 0.025034916 -0.080368206
-0.07355155 0.12387751 -0.04658185 -0.100172445 -0.069807455 0.07896122 0.051073685 -0.10138677
0.07139854 -0.060828403 -0.07939854 -0.070198916 -0.10536466 -0.033339776 0.016652063 -0.009188414
-0.0818125 -0.11392486 -0.15109536 -0.0031526685 0.07047349 -0.12477663 -0.09587583 -0.09351346
-0.029477607 0.035401843 -0.008763323 0.029776812 -0.023200275 -0.14156418 0.12791833 -0.04200962
0.09141706 0.09873724 0.025667852 -0.07193186 -0.07629566 -0.0969261 -0.026706606 0.006237835
0.044375096 -0.01821599 0.044546913 -0.058321897 0.11239453 -0.018294007 0.016316576 -0.090920776
0.052184854 -0.051294 0.053973213 0.08342716 0.08617005 0.0771485 0.07563442 -0.13701186
0.009904087 0.005788062 0.10714349 -0.02438052 -0.09791583 0.040320307 -0.09079034 0.00028297104
00000000: 7ff2 5c3d d3b4 573d 58a1 a13d 069d 8b3d
00000010: 5ce6 bb3d 0221 843d 90d8 1dbd cc81 e53d
00000020: b97b b9bd d438 0ebd cfa5 01be a93d fe3c
00000030: 1f92 cebd 3f10 bebd b012 473c 8072 13bd
00000040: 804b 29bb 4883 d4bc cd76 31be b4c6 7fbd
00000050: 5cad 163d 6096 d63b 0e16 99bd c1dc 37be
00000060: f9d1 cd3d 41cf 5cbd 2127 69bd e56d e43d
00000070: b8f4 bbbd acdd 9e3d b44c dcbc 3e44 af3d
00000080: 3afd 00be d42c b8bd 782e 08be 452c da3c
00000090: dcd9 59bd 477c 0abe 2e9d 8bbd 9b8f 983d
000000a0: 435a 123d af9e aa3d b5fa 693b ce8f 6fbc
000000b0: 886b d7bc 275d 2bbd fd7f ef3d e812 8ebd
000000c0: 7bf2 0fbe 60a9 8dbd 7387 923d 58f7 0a3e
000000d0: 9a2f 38bd 9871 5cbd 10c9 503c 4755 83bc
000000e0: 8eda ffbd 85f9 773d 44c9 393b 00f9 d63d
000000f0: b989 14be f01b 3b3d 2333 f7bd e874 8ebd
00000100: 25f1 88ba a5d1 643d a03e f43c 1a0c d43d
00000110: 3e9b b03d 827f ad3d e1a8 2b3c aaff 9bbd
00000120: 2b29 64bd e62b a5bd 4cb5 91bc 63bf a13c
00000130: 2087 e33d fd25 f83d c641 ac3d 6627 b53d
00000140: 60d8 e0bd b441 5dbd daab e03c 7885 493d
00000150: 844c bd3d 04ca 8fbd b451 f8bd e934 a43c
00000160: 36dd babd 89f0 093e ce64 9bbd 3e05 c03d
00000170: 4edc 9d3d 0a15 fd3d 3b17 853d 4064 f6bc
00000180: 988f c83d f805 d8bd 392c 8c3c f737 d93d
00000190: 58e8 e43d 7908 a1bd bcd2 14bd 2c68 1a3e
000001a0: 6149 b3bd c3e3 cb3d fe4d d83c c433 9bbd
000001b0: 0a13 cd3d 61e8 b53d 825d 27bd 2cf8 0cbd
000001c0: 2312 2dbb 8078 67bc 9494 96bd 4a74 9ebc
000001d0: a3db 683c 401e 53bd 7a3d 9bbd c907 00be
000001e0: 30a1 a83d 3865 94bd 78ec 16bd c828 aebd
000001f0: 5b98 d33d eaa1 91bd 0616 cd3c 1698 a4bd
00000200: 32a2 96bd 7eb3 fd3d 9ccc 3ebd 3627 cdbd
00000210: 36f7 8ebd 6cb6 a13d a432 513d dea3 cfbd
00000220: 6639 923d 3427 79bd b49b a2bd 73c4 8fbd
00000230: 6dc9 d7bd 4a8f 08bd e869 883c 008b 16bc
00000240: 508d a7bd 7051 e9bd beb8 1abe 009d 4ebb
00000250: 6854 903d e48a ffbd 8c5a c4bd fc83 bfbd
00000260: 067b f1bc 8601 113d 0a94 0fbc 80ee f33c
00000270: 810e bebc 33f6 10be 06fd 023e 4812 2cbd
00000280: de38 bb3d c036 ca3d 6345 d23c 0351 93bd
00000290: e640 9cbd 3181 c6bd d0c7 dabc c166 cc3b
000002a0: a9c2 353d b339 95bc d376 363d f1e2 6ebd
000002b0: 1a2f e63d 50dd 95bc 57aa 853c ac34 babd
000002c0: c9bf 553d a819 52bd 0413 5d3d dcdb aa3d
000002d0: ec79 b03d 0800 9e3d 38e6 9a3d d64c 0cbe
000002e0: c044 223c c8a9 bd3b 0c6e db3d a8b9 c7bc
000002f0: 1888 c8bd e826 253d 49f0 b9bd bb5b 9439

fc2.bias f4 [3]
0.02349221 -0.015828915 -0.10126405
00000000: bc72 c03c a4ab 81bc 8763 cfbd
