asl-sign-language-detector-python/models/conv_model.pth (torch, 435969 bytes, 8 tensors)

conv1.weight f4 [16, 1, 3, 3]
-0.0055287103 -0.089505956 -0.3282043 -0.020462474 0.4371796 0.17461453 -0.33028764 -0.0075017647
-0.07297082 0.50965345 0.46604592 0.3876753 -0.2590758 -0.2411615 0.2293046 -0.1980631
-0.3621677 -0.4237344 0.02067763 -0.08556508 -0.3605965 0.26920262 0.37435707 -0.4413239
-0.26907474 0.62931657 -0.13818654 -0.017556375 0.1688809 0.27979118 -0.4770557 -0.108053274
0.41289684 -0.5779775 -0.06008247 0.4772815 -0.18927932 -0.26108712 -0.08441098 -0.319817
-0.01968781 0.23513459 0.1945531 0.26125473 0.18583901 0.43994325 0.05328035 0.011672349
-0.005889908 0.48161322 0.36658004 -0.5241324 -0.44867396 0.4235697 0.31379172 -0.08687714
-0.06349885 -0.031321194 -0.17687032 0.05220476 -0.16890863 -0.1011149 0.21203245 0.07125637
-0.25128263 -0.39189848 0.16505125 0.028347192 0.18211593 0.031061571 0.15844283 0.07973068
0.10627526 0.37576017 -0.0740197 0.08460222 0.3668508 -0.11261662 0.3385798 0.13475537
-0.78547585 0.019616473 -0.15825565 -0.19011155 -0.15733406 0.014988054 -0.16870274 0.082499176
-0.16959208 -0.047289476 -0.44642633 0.3736842 -0.0022971167 0.20506383 0.16211678 -0.12770173
-0.3339054 0.20681489 -0.20547545 -0.37719566 -0.1901459 -0.004153336 -0.058395203 0.033679735
0.19603528 -0.13592197 0.36100203 0.17392841 -0.2346169 -0.2735204 -0.19570827 0.024008416
-0.35924435 -0.16691719 0.52332073 0.31574553 0.22897652 -0.05914853 -0.25264144 0.19452347
0.15133289 0.12894069 0.24403779 0.11819381 0.09621398 -0.18127806 0.31782088 -0.15390855
-0.21217206 0.3797367 -0.25408632 -0.30458203 0.48321223 0.22026253 -0.39890382 0.6844481
0.029364005 -0.3965171 -0.14316735 -0.6088402 0.24891691 0.100882664 -0.3532819 0.519734
00000000: 2f2a b5bb e64e b7bd 650a a8be eba0 a7bc
00000010: 01d6 df3e 27ce 323e 761b a9be 5dd1 f5bb
00000020: ba71 95bd a678 023f 929d ee3e 607d c63e
00000030: 95a5 84be 0af3 76be d3ce 6a3e 0ed1 4abe
00000040: 0b6e b9be b7f3 d8be 2264 a93c bf3c afbd
00000050: 1ba0 b8be edd4 893e bbab bf3e 35f5 e1be
00000060: 2ac4 89be e41a 213f c680 0dbe 63d2 8fbc
00000070: 1def 2c3e ca40 8f3e a540 f4be 094b ddbd
00000080: 3767 d33e 55f6 13bf 0919 76bd 3e5e f43e
00000090: 70d2 41be 36ad 85be aadf acbd 0ebf a3be
000000a0: 5548 a1bc 1fc7 703e ee38 473e 2ec3 853e
000000b0: 954c 3e3e 3e40 e13e 7f3c 5a3d 613d 3f3c
000000c0: 2100 c1bb 0296 f63e 61b0 bb3e 8a2d 06bf
000000d0: 98b8 e5be 21de d83e 4fa9 a03e a4ec b1bd
000000e0: af0b 82bd a74a 00bd 7e1d 35be a9d4 553d
000000f0: 62f6 2cbe 5415 cfbd 091f 593e dcee 913d
00000100: 1ea8 80be eba6 c8be 3203 293e 5f38 e83c
00000110: 997c 3a3e d674 fe3c d63e 223e d749 a33d
00000120: d8a6 d93d a363 c03e a497 97bd ee43 ad3d
00000130: ded3 bb3e 8ba3 e6bd 555a ad3e 50fd 093e
00000140: f214 49bf bab2 a03c c50d 22be 9aac 42be
00000150: 2e1c 21be 7490 753c 69c0 2cbe 54f5 a83d
00000160: 8ca9 2dbe 9cb2 41bd fe91 e4be 8953 bf3e
00000170: 398b 16bb 41fc 513e f101 263e 3ec4 02be
00000180: a6f5 aabe 48c7 533e 2868 52be ca1f c1be
00000190: 9bb5 42be b518 88bb cf2f 6fbd c3f3 093d
000001a0: 79bd 483e 212f 0bbe 42d5 b83e 4a1a 323e
000001b0: 6a3f 70be de0a 8cbe c067 48be 4cad c43c
000001c0: e0ee b7be 57ec 2abe 59f8 053f 66a9 a13e
000001d0: d278 6a3e bb45 72bd 385a 81be 2931 473e
000001e0: 02f7 1a3e 0709 043e 0be5 793e 990f f23d
000001f0: d60b c53d f5a0 39be 6bb9 a23e 349a 1dbe
00000200: a243 59be d96c c23e 9a17 82be 2df2 9bbe
00000210: 9867 f73e 808c 613e 1f3d ccbe fe37 2f3f
00000220: c88c f03c 4a04 cbbe 769a 12be f4dc 1bbf
00000230: 13e4 7e3e 929b ce3d 5de1 b4be 4a0d 053f

conv1.bias f4 [16]
-0.26785684 -0.024839744 -0.1270815 -0.018025164 -0.09908068 -0.34380108 -0.1932012 -0.03421852
-0.21315262 0.087885104 -0.22426036 -0.10099254 -0.16584173 -0.046151962 -0.050996058 -0.0035931529
00000000: 8824 89be b87c cbbc a721 02be 82a9 93bc
00000010: d0ea cabd b206 b0be 89d6 45be b828 0cbd
00000020: ae44 5abe 1bfd b33d 82a4 65be 2dd5 cebd
00000030: 6ad2 29be d709 3dbd 3ee1 50bd 1a7b 6bbb

conv2.weight f4 [32, 16, 3, 3]
-0.04419768 -0.14921856 -0.23641822 0.09752271 -0.18144363 0.18425658 -0.079042785 0.075390086
0.027290963 0.18009245 0.04417503 -0.5324128 0.24854475 0.052653067 -0.21446745 0.4659115
0.3073298 -0.5546606 -0.32324985 0.01922504 0.027765132 0.029787695 -0.14594083 -0.59784037
-0.5880851 -0.38715863 -0.39821044 -0.14861627 -0.22099143 -0.61343247 -0.28316346 -0.4153507
-0.10068304 -0.6384918 -0.39968756 0.017913202 0.22234069 -0.12212598 -0.506001 0.31962258
-0.40096062 0.19162574 -0.2716357 0.27045387 0.070299365 -0.13238052 0.05776046 -0.31025398
0.29242113 0.051200494 -0.35522267 0.15529034 0.005099999 -0.31525865 0.07815105 0.0065619014
0.070852995 -0.17164391 -0.045152273 0.027302502 0.005407992 0.12265766 -0.08497956 -0.037767235
-0.30874726 -0.35024595 0.22039281 -0.2556006 -0.49528947 -0.23090686 -0.119205736 -0.24707429
0.077736884 0.1714637 0.069038615 -0.03183911 0.08134731 -0.16930819 -0.19736357 -0.24487008
-0.31081438 -0.035776537 0.038087536 0.046786875 -0.019444728 -0.0033099274 -0.03831388 -0.0154572725
0.056897722 0.069158785 0.035201035 0.09376658 -0.63772225 0.027699545 0.0070224125 0.07529522
-0.15585454 0.04126196 0.34842905 0.16268514 -0.1241576 -0.47741395 0.1316608 -0.39263102
0.16755338 -0.23190738 0.2042921 0.11720075 0.16031206 -0.16119047 -0.6775229 0.28983036
-0.034990337 -0.6346457 -0.1270773 0.04156629 -0.07482044 0.23064236 0.12666577 -0.33307186
0.36321113 0.048132762 -0.39059952 0.31522837 -0.31739584 0.35298213 0.05011545 0.249458
0.33814037 0.11695681 0.05766966 0.09121924 -0.1340009 -0.26861435 -0.2595176 -0.06442008
-0.24995995 -0.16220477 -0.0050324816 -0.0692506 0.07480086 -0.024601134 0.01566736 -0.39796022
-0.020915538 0.15849495 0.16645324 -0.040645726 0.3945619 -0.15936545 0.2775489 -0.05121803
-0.060649708 0.2758326 0.017907167 0.047026303 0.12802854 0.31197256 0.14186192 -0.3960156
-0.18831946 -0.21957013 -0.07722161 0.19033733 -0.28706738 -0.20605488 0.053974494 0.015550247
0.3206456 0.20223193 0.012405846 -0.14924386 0.0112844575 0.13454194 -0.24254121 -0.044715934
0.035694305 0.17463619 -0.31409776 -0.026614862 -0.031499647 0.09629059 0.20463362 -0.6604724
-0.11905728 -0.08045322 0.12195993 0.040783588 0.07396607 0.26034892 -0.17567243 -0.2226025
0.07544139 0.11137331 -0.066536054 -0.032446843 0.2677051 -0.16272387 0.091327995 0.03074622
0.020094352 -0.25342357 -0.17050783 -0.0638431 -0.129305 -0.21671529 0.020159274 0.05095065
0.11193311 -0.128583 -0.14699857 -0.21985227 -0.09641324 0.43166053 0.30055472 0.04584696
0.12548673 0.0069283107 0.1626362 -0.14084901 -0.047781594 -0.043775357 0.06556332 -0.044666555
-0.14548531 -0.19167438 -0.12299089 0.058441855 -0.23831695 -0.1871401 -0.11091606 -0.3213957
-0.14901675 -0.14407633 -0.09136618 0.03005728 0.15365791 -0.18044113 0.15286271 -0.0057433
-0.08662669 -0.1892837 -0.2884499 0.07651907 0.14881425 0.06146355 -0.4470842 -0.047519766
-0.0861257 0.227706 -0.08456644 0.18403563 0.008958652 0.3300947 0.091951385 0.023021381
00000000: a008 35bd c0cc 18be 9e17 72be fdb9 c73d
00000010: 5ccc 39be c2ad 3c3e 2fe1 a1bd 1e66 9a3d
00000020: 4c91 df3c 286a 383e e0f0 343d 354c 08bf
00000030: 8482 7e3e beaa 573d 5b9d 5bbe f48b ee3e
00000040: 555a 9d3e 3dfe 0dbf 0181 a5be d57d 9d3c
00000050: b473 e33c 5305 f43c 8371 15be 110c 19bf
00000060: bf8c 16bf a839 c6be 3de2 cbbe dd2e 18be
00000070: 944b 62be e909 1dbf cdfa 90be d9a8 d4be
00000080: e932 cebd 3374 23bf d9a3 ccbe b5be 923c
00000090: 47ad 633e 301d fabd 4889 01bf 92a5 a33e
000000a0: b64a cdbe 8a39 443e d613 8bbe ee78 8a3e
000000b0: 1df9 8f3d c28e 07be 3b96 6c3d 9cd9 9ebe
000000c0: 39b8 953e 9cb7 513d bfdf b5be 6e04 1f3e
000000d0: e41d a73b 9569 a1be a80d a03d 3805 d73b
000000e0: 601b 913d 6cc3 2fbe 97f1 38bd 7fa9 df3c
000000f0: 8635 b13b f033 fb3d c309 aebd d1b1 1abd
00000100: 1f14 9ebe 7053 b3be a7ae 613e 15de 82be
00000110: 9596 fdbe d972 6cbe 2322 f4bd 0b01 7dbe
00000120: 8434 9f3d 2e94 2f3e 1e64 8d3d ba69 02bd
00000130: 6b99 a63d 205f 2dbe ad19 4abe 39bf 7abe
00000140: 1023 9fbe 6b8a 12bd ad01 1c3d 98a3 3f3d
00000150: 8d4a 9fbc 5eeb 58bb 04ef 1cbd 8040 7dbc
00000160: 960d 693d 1fa3 8d3d f62e 103d b108 c03d
00000170: c441 23bf 28ea e23c 441c e63b 6134 9a3d
00000180: 5598 1fbe 4d02 293d 4b65 b23e ef96 263e
00000190: 5746 febd 9a6f f4be 17d2 063e ef06 c9be
000001a0: 1d93 2b3e 2179 6dbe f331 513e f206 f03d
000001b0: d828 243e 1d0f 25be 2472 2dbf a564 943e
000001c0: 0752 0fbd 2478 22bf 8d20 02be 6a41 2a3d
000001d0: 753b 99bd 832d 6c3e acb4 013e 6588 aabe
000001e0: cff6 b93e dc26 453d a9fc c7be 9d65 a13e
000001f0: b581 a2be 13ba b43e dc45 4d3d eb71 7f3e
00000200: bc20 ad3e 0d87 ef3d 0537 6c3d 27d1 ba3d
00000210: 8837 09be d287 89be 7edf 84be adee 83bd
00000220: 80f5 7fbe 0219 26be 84e7 a4bb 42d3 8dbd
00000230: 3131 993d 5188 c9bc d658 803c 71c1 cbbe
00000240: 1057 abbc 804c 223e b872 2a3e 227c 26bd
00000250: 0404 ca3e b230 23be e41a 8e3e ffc9 51bd
00000260: d46b 78bd ee39 8d3e 0db2 923c a79e 403d
00000270: ea19 033e deba 9f3e 4044 113e 8fc2 cabe
00000280: d1d6 40be fed6 60be 5d26 9ebd cae7 423e
00000290: 7ffa 92be 0d00 53be 5c14 5d3d 77c6 7e3c
000002a0: a92b a43e e315 4f3e e441 4b3c 62d3 18be
000002b0: 72e2 383c 5dc5 093e b95c 78be 0e28 37bd
000002c0: 3134 123d d4d3 323e 6cd1 a0be 6907 dabc
000002d0: c605 01bd 0034 c53d 7a8b 513e b814 29bf
000002e0: 4ed4 f3bd a8c4 a4bd 21c6 f93d b10c 273d
000002f0: 867b 973d 744c 853e 79e3 33be e9f1 63be
00000300: 0481 9a3d b117 e43d 0e44 88bd fbe6 04bd
00000310: a510 893e 16a1 26be 2c0a bb3d 7fdf fb3c
00000320: e99c a43c bcc0 81be 9b99 2ebe 2cc0 82bd
00000330: 8868 04be 9dea 5dbe 1025 a53c a1b1 503d
00000340: 303d e53d 43ab 03be cb86 16be f420 61be
00000350: 4e74 c5bd 9c02 dd3e 4fe2 993e 06ca 3b3d
00000360: 987f 003e e206 e33b 1b8a 263e b93a 10be
00000370: a2b6 43bd ca4d 33bd 1046 863d 47f4 36bd
00000380: 1afa 14be 4a46 44be a6e2 fbbd ba60 6f3d
00000390: 5c09 74be a8a1 3fbe f627 e3bd fa8d a4be
000003a0: d997 18be bf88 13be 311e bbbd af3a f63c
000003b0: 8058 1d3e 8fc5 38be 0b88 1c3e 4b32 bcbb
000003c0: 5669 b1bd 96d3 41be b5af 93be 08b6 9c3d
000003d0: c362 183e 34c1 7b3d 38e8 e4be 16a4 42bd
000003e0: ac62 b0bd c32b 693e 2b31 adbd d673 3c3e
000003f0: 4fc7 123c 2c02 a93e 0251 bc3d 5697 bc3c

conv2.bias f4 [32]
0.046871968 -0.21933778 -0.12697133 -0.15885489 -0.08505393 -0.051745865 -0.057363726 -0.15819523
-0.18240215 -0.18037944 0.013426614 0.039518148 0.021055127 -0.12931322 -0.14334346 -0.17328228
-0.03434779 -0.19646226 -0.105936065 -0.10141821 0.068844736 -0.0049635516 -0.23014365 0.07036772
-0.11916062 -0.18517573 0.002211617 0.029902447 -0.3290323 -0.15046407 -0.00551456 -0.068024516
00000000: d2fc 3f3d 159a 60be c604 02be dbaa 22be
00000010: c130 aebd 79f3 53bd 3af6 6abd eefd 21be
00000020: a1c7 3abe 63b5 38be 4dfb 5b3c c8dd 213d
00000030: cd7b ac3c af6a 04be a1c8 12be e970 31be
00000040: 45b0 0cbd 672d 49be 02f5 d8bd 5ab4 cfbd
00000050: 78fe 8c3d 4aa5 a2bb c7aa 6bbe f41c 903d
00000060: 7c0a f4bd b59e 3dbe c7f0 103b faf5 f43c
00000070: ec76 a8be 4113 1abe 7bb3 b4bb 7050 8bbd

fc1.weight f4 [64, 1568]
-0.35832274 -0.013179033 0.13591786 -0.19374055 0.16685605 0.28485906 0.48746008 0.037681296
0.12166506 0.20559895 0.123297445 0.008586654 -0.2691515 -0.19401462 0.1383412 0.4065898
0.074984506 0.12971014 -0.07210662 -0.07341788 -0.28884894 0.1947793 0.57440567 0.08652508
0.22668311 0.06299927 0.20868848 0.11194865 0.057611592 0.14940582 0.1332973 0.1717918
0.3220746 0.127164 -0.0010322927 0.1223835 0.010676817 -0.001745545 0.24624106 0.21736997
-0.03270925 0.31486553 -0.008506331 0.6906525 0.05088246 0.25331786 -0.19935855 -0.011734234
0.33900565 -0.039705466 0.14940621 -0.076942354 -0.068770364 0.10375601 -0.15489641 0.18742889
0.07017867 -0.34825796 -0.15143427 -0.07024945 0.3006693 0.20797057 0.07985131 -0.02917537
-0.12262169 -0.13216586 0.04534189 0.13019225 -0.049698263 -0.44225365 0.18981057 -0.08816175
0.046045702 0.056592077 0.1348294 -0.19514303 -0.2636557 -0.093132384 -0.114215106 0.14160086
-0.028309418 -0.13765253 -0.08626497 0.022708125 -0.08551993 -0.22624862 -0.029489215 0.020658208
-0.06930733 0.1778046 0.2807967 0.051538326 0.009909381 0.0325249 0.054266166 0.13836958
-0.008762091 -0.105509914 0.20692708 0.07131325 -0.1895958 -0.17552492 -0.05265893 0.031867404
0.22329958 0.12992798 0.22029696 -0.016668588 0.051832628 0.32674628 0.081699505 0.036740575
0.30643016 0.02201729 0.2367966 0.2664669 0.3470077 0.11254656 -0.07153565 0.07374288
0.28013346 0.28434834 0.37036625 0.2808157 -0.0891903 -0.023163222 -0.26241034 0.16505927
0.24681708 0.22039057 0.0018398109 -0.29317835 0.01602489 -0.116109304 0.29895985 0.24160427
-0.14292274 -0.5619684 -0.25446886 -0.10565061 0.05730998 0.2001295 0.18141483 0.006718548
-0.12764159 -0.04462431 -0.3050666 -0.058317628 -0.06247684 -0.102718085 -0.055159442 -0.45091963
-0.17327765 0.13751426 -0.121355645 -0.24290521 -0.22635232 -0.07071596 -0.083223775 0.05327711
0.14148645 -0.16112408 -0.08084755 -0.2736949 0.25873545 0.14604604 0.19947857 -0.030428406
-0.08086939 -0.007342228 -0.0013509386 0.21535686 0.07790779 0.06062879 -0.22776237 0.12339252
0.07357629 0.083355926 0.01732869 0.029306034 -0.033106748 -0.005746052 0.037146408 -0.0014030637
0.014627403 0.06387577 0.11127293 0.14512648 -0.008465831 -0.38721606 -0.16118641 0.123508975
0.14617749 0.20021431 -0.20713773 0.26786384 0.3157085 0.09081717 0.037495237 -0.20462205
0.11816902 -0.10882129 0.12825833 0.06040136 -0.05686763 -0.18132497 -0.04585472 0.059975497
0.07646568 0.19620498 0.16510242 0.106456965 -0.2382467 0.00016406486 0.11894964 -0.15901041
0.10904652 -0.025932904 0.025267811 0.05280608 0.015356269 0.06045801 -0.08987739 0.01736398
-0.25419822 -0.09533752 -0.045096233 0.10207945 -0.06604808 0.13177857 0.0022651306 -0.08826834
-0.020944465 0.021089764 0.3447459 0.03563109 -0.04528475 0.0046032825 -0.14275646 0.1260566
0.029599117 -0.09708144 -0.19770302 -0.21600954 0.35374203 0.28381413 -0.092941105 0.042475816
0.09580548 -0.028163943 0.13511308 0.15153256 0.03196005 -0.08679338 -0.02277574 0.17650197
00000000: 1476 b7be dfec 57bc 0d2e 0b3e ec63 46be
00000010: 50dc 2a3e 0cd9 913e 5e94 f93e b457 1a3d
00000020: 882b f93d 8888 523e 5f83 fc3d 0aaf 0c3c
00000030: 3ace 89be c5ab 46be 51a9 0d3e 8a2c d03e
00000040: 7a91 993d bcd2 043e a3ac 93bd 1d5c 96bd
00000050: 02e4 93be 3a74 473e 400c 133f 1034 b13d
00000060: 9e1f 683e c305 813d 6fb2 553e 5545 e53d
00000070: 22fa 6b3d d7fd 183e 167f 083e 31ea 2f3e
00000080: f6e6 a43e 4837 023e ff4d 87ba 33a4 fa3d
00000090: d1ed 2e3c c5ca e4ba 9e26 7c3e 3c96 5e3e
000000a0: 22fa 05bd 0e36 a13e 235e 0bbc 9ace 303f
000000b0: 206a 503d e1b2 813e a624 4cbe f240 40bc
000000c0: 2692 ad3e 33a2 22bd f1fd 183e f493 9dbd
000000d0: 7ad7 8cbd 087e d43d 2a9d 1ebe 5ced 3f3e
000000e0: d6b9 8f3d de4e b2be 9611 1bbe f2de 8fbd
000000f0: 54f1 993e 3df6 543e 1589 a33d 2f01 efbc
00000100: 1521 fbbd 7d56 07be 6bb8 393d 1e51 053e
00000110: 6890 4bbd 126f e2be b45d 423e 268e b4bd
00000120: 6b9a 3c3d 18cd 673d b810 0a3e 93d3 47be
00000130: e1fd 86be 31bc bebd 9ce9 e9bd d1ff 103e
00000140: 27e9 e7bc c9f4 0cbe b0ab b0bd 6406 ba3c
00000150: 1325 afbd b8ad 67be 5e93 f1bc 673b a93c
00000160: 00f1 8dbd 6912 363e 96c4 8f3e da19 533d
00000170: f55a 223c d438 053d 3346 5e3d c1b0 0d3e
00000180: e08e 0fbc 9515 d8bd b1e4 533e ae0c 923d
00000190: 6725 42be cebc 33be e4b0 57bd 6587 023d
000001a0: a5a8 643e d70b 053e 8795 613e 908c 88bc
000001b0: 734e 543d 4a4b a73e 1252 a73d 497d 163d
000001c0: 6ae4 9c3e 9b5d b43c cf7a 723e 596e 883e
000001d0: feaa b13e d07e e63d 4881 92bd 8206 973d
000001e0: a76d 8f3e 1b96 913e a5a0 bd3e 13c7 8f3e
000001f0: 67a9 b6bd ccc0 bdbc a65a 86be 4c05 293e
00000200: 9ebd 7c3e 11ae 613e cf25 f13a 791b 96be
00000210: a146 833c b7ca edbd 4411 993e 1c67 773e
00000220: 575a 12be 29dd 0fbf be49 82be 595f d8bd
00000230: dfbd 6a3d bfee 4c3e cfc4 393e 4427 dc3b
00000240: 7ab4 02be fbc7 36bd b031 9cbe 77de 6ebd
00000250: b7e7 7fbd dc5d d2bd deee 61bd f0de e6be
00000260: b26f 31be 8ad0 0c3e 4f89 f8bd 25bc 78be
00000270: e7c8 67be 87d3 90bd 3a71 aabd 1939 5a3d
00000280: d3e1 103e b6fd 24be 6693 a5bd bd21 8cbe
00000290: f978 843e 188d 153e 1c44 4c3e fe44 f9bc
000002a0: da9e a5bd 1397 f0bb fa11 b1ba 8286 5c3e
000002b0: 1f8e 9f3d e555 783d 8a3a 69be 38b5 fc3d
000002c0: 2aaf 963d 83b6 aa3d e6f4 8d3c 3513 f03c
000002d0: f19a 07bd 6149 bcbb d526 183d 01e7 b7ba
000002e0: c6a7 6f3c 4dd1 823d 10e3 e33d 099c 143e
000002f0: 45b4 0abc 2f41 c6be 0d0e 25be 46f2 fc3d
00000300: 8daf 153e fb04 4d3e ea1b 54be 7325 893e
00000310: 8ba4 a13e 5afe b93d 9b94 193d 7188 51be
00000320: 9902 f23d b2dd debd 2756 033e 6b67 773d
00000330: 08ee 68bd 41ad 39be 29d2 3bbd dea8 753d
00000340: 0a9a 9c3d f5e9 483e 9c10 293e 1c06 da3d
00000350: f1f6 73be d308 2c39 de9b f33d a0d3 22be
00000360: c853 df3d 3e71 d4bc 71fe ce3c 304b 583d
00000370: dc98 7b3c d1a2 773d a311 b8bd e83e 8e3c
00000380: 4526 82be 5140 c3bd d4b6 38bd 080f d13d
00000390: 3744 87bd f6f0 063e 9672 143b 08c6 b4bd
000003a0: ba93 abbc 71c4 ac3c 8982 b03e e8f1 113d
000003b0: 817c 39bd 22d7 963b c02e 12be fb14 013e
000003c0: d979 f23c a2d2 c6bd a972 4abe 9b31 5dbe
000003d0: ad1d b53e 1650 913e e857 bebd 1ffb 2d3d
000003e0: aa35 c43d 12b8 e6bc 155b 0a3e 5a2b 1b3e
000003f0: 8be8 023d bac0 b1bd 3094 babc efbc 343e

fc1.bias f4 [64]
0.30365977 0.06308893 -0.039593942 -0.007221415 -0.003556752 -0.028297355 0.04254295 -0.017769117
0.12162346 0.0017130359 -0.2152449 0.15208046 -0.103010125 0.3132685 -0.010518463 -0.073502764
-0.013259845 -0.01849648 0.101711914 -0.028387832 -0.047888245 -0.008196945 0.0027357838 0.018241009
0.3654423 0.12731172 -0.33471262 -0.21729384 -0.071174465 0.084853075 0.14192542 -0.0283279
-0.2023017 -0.03494038 0.30617535 0.15658213 -0.021603659 0.17955448 -0.05325867 0.34830126
-0.021910042 -0.06755211 -0.11536129 0.23568399 -0.100665934 -0.017104262 0.0273721 0.038652215
-0.15210819 -0.0023398392 -0.008691383 0.1619545 -0.100942485 -0.018048432 -0.041996237 -0.06786793
-0.035766467 -0.047234416 0.16536947 0.06311558 -0.17550218 -0.026417788 -0.19844371 0.16442847
00000000: 4b79 9b3e c534 813d 422d 22bd 9fa1 ecbb
00000010: 6618 69bb dbcf e7bc 8441 2e3d 8a90 91bc
00000020: b815 f93d f287 e03a 2969 5cbe fbba 1b3e
00000030: f9f6 d2bd bb64 a03e a255 2cbc 9e88 96bd
00000040: d23f 59bc ee85 97bc 564e d03d 998d e8bc
00000050: 7726 44bd 7b4c 06bc d64a 333b 2b6e 953c
00000060: 411b bb3e 015e 023e 745f abbe 4782 5ebe
00000070: ebc3 91bd 73c7 ad3d e654 113e ea0f e8bc
00000080: 2d28 4fbe a51d 0fbd 04c3 9c3e 1157 203e
00000090: 28fa b0bc 21dd 373e c325 5abd 8b54 b23e
000000a0: b07c b3bc c358 8abd 8a42 ecbd 2557 713e
000000b0: f129 cebd 3d1e 8cbc 743b e03c c951 1e3d
000000c0: 40c2 1bbe fd57 19bb 4d66 0ebc 67d7 253e
000000d0: efba cebd 4eda 93bc 3f04 2cbd 57fe 8abd
000000e0: dc7f 12bd e078 41bd 9d56 293e be42 813d
000000f0: d8b6 33be 1e6a d8bc d434 4bbe f05f 283e

fc2.weight f4 [47, 64]
0.1887806 0.086130574 0.058837406 0.10676127 -0.043635678 0.09440422 0.0003264539 -0.086519256
-0.036897115 -0.106003724 -0.3042746 0.09951818 -0.38791192 -0.15829547 -0.09088344 0.10127924
0.10183671 0.037848525 -0.016438235 -0.07381936 -0.014506644 -0.026153496 -0.06635564 -0.3309066
-0.1828484 -0.03706946 -0.5828849 -0.07109139 -0.36032316 0.07800866 0.111520976 0.061766446
0.15356104 0.03662544 -0.23585802 0.14029716 -0.1291884 -0.20789923 0.03783812 -0.10947419
0.008433689 0.003194433 -0.21315697 -0.0032720927 0.048615247 -0.20811673 -0.21413936 0.17391568
-0.23937033 0.016684731 -0.08854279 -0.22616337 -0.09926585 -0.03471985 0.07684324 0.2003431
0.03845219 -0.9240483 -0.20448618 -0.31029934 -0.02688601 0.025918152 0.076661766 -0.11580454
-0.010497269 0.085634455 -0.047515225 -0.010184584 0.011937977 0.05049857 -0.38185152 0.079273276
-0.27769628 -0.116292015 -0.13601625 -0.011665791 -0.07349591 0.18089469 0.039948598 0.03069936
-0.0991104 0.088784754 -0.3596642 -0.04268917 0.0028704854 0.021250064 0.05974193 -0.3179965
0.20544672 0.07284935 -0.24179953 -0.40028444 0.071302444 -0.26646918 0.16221043 0.051788393
-0.20972662 0.03549346 0.16390121 0.19624718 0.030515147 0.061785907 0.028651286 -0.06859467
0.21395111 -0.59757054 -0.3218907 0.16968271 -0.045108926 -0.062120553 0.067198835 -0.21834262
-0.3538687 0.088071324 -0.22034208 0.16939484 -0.074275605 -0.10840946 -0.06442507 -0.44007418
-0.09321809 0.01818736 0.08868555 -0.10376144 -0.07895109 0.09429478 -0.084639154 -0.14027928
-0.13272484 -0.16202764 -0.056311928 -0.0062507265 0.06713232 0.048396178 -0.061629355 0.04174275
-0.09529638 0.042233847 -0.034916192 0.107212625 -0.04797913 0.04323611 -0.019751444 -0.0480154
-0.022631055 -0.04215552 -0.5609201 0.033279974 -0.14265719 -0.082253896 -0.082891166 -0.14610864
0.08735619 0.13934764 -0.060572207 0.16368836 -0.5119449 0.23464929 -0.19394776 -0.09474864
-0.15857346 -0.013018818 -0.30448422 0.10165291 -0.07989041 0.048073743 0.09422728 0.014536117
-0.42641598 0.15879261 0.045001846 -0.34379613 0.006560036 0.16332473 -0.6228895 0.06978271
0.11608384 -0.095665894 -0.30504516 -0.04186453 -0.1883775 0.043947954 -0.036597367 -0.575855
-0.03657559 -0.893734 0.34921706 -0.4982357 -0.3819057 0.03123921 0.14202403 -0.2680772
-0.18209177 -0.2477643 -0.13873069 -0.1058912 -0.060921654 -0.050861042 -0.14923465 -0.121846944
0.12823674 0.10922934 0.06629249 -0.102441646 -0.27998036 0.07039821 -0.0066297967 0.0024727753
0.09278091 0.017096844 -0.31778833 -0.10908002 -0.11354835 0.07497838 0.036208056 -0.5524744
-0.24949473 -0.046926104 -0.4069245 -0.17230764 -0.41382504 -0.13812928 -0.24632712 -0.077904806
-0.26434952 -0.110952534 -0.1593305 0.08527989 0.05449455 -0.25771853 -0.02743658 -0.2875744
-0.19328313 -0.2143437 0.2534575 -0.13130237 -0.19340445 -0.604063 -0.47142056 0.3650257
-0.1612375 0.12511118 0.17135529 0.292977 -0.054365885 -0.011774021 -0.02277242 -0.032106318
-0.009043218 -0.3848 0.2786764 -0.2510864 -0.3312315 0.07002795 -0.0057753166 -0.29328206
00000000: b44f 413e 3a65 b03d 7eff 703d a7a5 da3d
00000010: 53bb 32bd 0057 c13d e727 ab39 0231 b1bd
00000020: 6e21 17bd 7b18 d9bd e1c9 9bbe 30d0 cb3d
00000030: 649c c6be 3518 22be 1921 babd 7d6b cf3d
00000040: c48f d03d 0e07 1b3d 7aa9 86bc 9b2e 97bd
00000050: 46ad 6dbc db3f d6bc 77e5 87bd 976c a9be
00000060: 9c3c 3bbe 25d6 17bd f237 15bf 5d98 91bd
00000070: 477c b8be 01c3 9f3d 1c65 e43d d0fe 7c3d
00000080: 1b3f 1d3e 8f04 163d c484 71be 0faa 0f3e
00000090: f749 04be 89e3 54be 25fc 1a3d 0134 e0bd
000000a0: 752d 0a3c b159 513b d245 5abe 9b70 56bb
000000b0: c820 473d 8d1c 55be 5947 5bbe f416 323e
000000c0: 7f1d 75be 6bae 883c ec55 b5bd 5f97 67be
000000d0: e54b cbbd 6736 0ebd fd5f 9d3d be26 4d3e
000000e0: 0b80 1d3d 6e8e 6cbf d364 51be 8edf 9ebe
000000f0: 0d40 dcbc 4e52 d43c d800 9d3d ee2a edbd
00000100: bdfc 2bbc 1e61 af3d 539f 42bd 3edd 26bc
00000110: 8197 433c 97d7 4e3d 0b82 c3be 075a a23d
00000120: 352e 8ebe 822a eebd d847 0bbe e021 3fbc
00000130: 0685 96bd 753c 393e 24a1 233d 397d fb3c
00000140: 65fa cabd c8d4 b53d e825 b8be d7da 2ebd
00000150: c11e 3c3b 9d14 ae3c f4b3 743d 70d0 a2be
00000160: a060 523e 0a32 953d 4c9a 77be 15f2 ccbe
00000170: 0407 923d a66e 88be 7e1a 263e 1120 543d
00000180: 93c2 56be 9761 113d b8d5 273e 05f5 483e
00000190: e7fa f93c 3813 7d3d 1ab6 ea3c 5d7b 8cbd
000001a0: 0016 5b3e 62fa 18bf dcce a4be 4ec1 2d3e
000001b0: 23c4 38bd 1f72 7ebd 8b9f 893d 3595 5fbe
000001c0: 472e b5be bd5e b43d 5ba1 61be d775 2d3e
000001d0: cf1d 98bd c705 debd 4bf1 83bd 6751 e1be
000001e0: 20e9 bebd a9fd 943c c5a0 b53d e180 d4bd
000001f0: 1cb1 a1bd 9f1d c13d 4b57 adbd 5fa5 0fbe
00000200: 05e9 07be 93ea 25be 56a7 66bd e5d2 ccbb
00000210: ab7c 893d 123b 463d 106f 7cbd 72fa 2a3d
00000220: c02a c3bd 66fd 2c3d 4804 0fbd 4b92 db3d
00000230: c485 44bd 5918 313d c8cd a1bc ccab 44bd
00000240: c364 b9bc 44ab 2cbd 7698 0fbf 9550 083d
00000250: ba14 12be bb74 a8bd d8c2 a9bd 819d 15be
00000260: cde7 b23d 26b1 0e3e 901a 78bd ec9d 273e
00000270: d20e 03bf e747 703e 3e9a 46be 930b c2bd
00000280: 1561 22be e14c 55bc 5be5 9bbe 672f d03d
00000290: 959d a3bd f9e8 443d 3bfa c03d e528 6e3c
000002a0: 3253 dabe 889a 223e db53 383d 0c06 b0be
000002b0: 92f5 d63b 993e 273e b075 1fbf 3dea 8e3d
000002c0: 5dbd ed3d 7bec c3bd e12e 9cbe 247a 2bbd
000002d0: 08e6 40be c502 343d 1fe7 15bd 3c6b 13bf
000002e0: 49d0 15bd c0cb 64bf 94cc b23e c018 ffbe
000002f0: 2589 c3be 5fe9 ff3c bf6e 113e 6a41 89be
00000300: 4476 3abe edb5 7dbe 6b0f 0ebe 7cdd d8bd
00000310: fc88 79bd ab53 50bd f8d0 18be e48a f9bd
00000320: 7e50 033e a2b3 df3d 5bc4 873d edcc d1bd
00000330: 9659 8fbe f02c 903d c43e d9bb 490e 223b
00000340: eb03 be3d ae0e 8c3c 27b5 a2be 5865 dfbd
00000350: 0a8c e8bd 448e 993d e64e 143d f66e 0dbf
00000360: 8c7b 7fbe 9635 40bd 6858 d0be 6a71 30be
00000370: e0e0 d3be c371 0dbe 2d3d 7cbe 8e8c 9fbd
00000380: d258 87be 153b e3bd 8927 23be 39a7 ae3d
00000390: ad35 5f3d aff3 83be aec2 e0bc f43c 93be
000003a0: 03ec 45be ea7c 5bbe 2ec5 813e 2174 06be
000003b0: d10b 46be dfa3 1abf 095e f1be a6e4 ba3e
000003c0: 711b 25be 251d 003e c377 2f3e 1501 963e
000003d0: c3ae 5ebd d3e7 40bc 3a8d babc ea81 03bd
000003e0: 012a 14bc 8104 c5be acae 8e3e 668e 80be
000003f0: 2d97 a9be d06a 8f3d de3e bdbb 1129 96be

fc2.bias f4 [47]
-0.0018854319 0.16816407 -0.09637609 0.0070971237 0.07511614 -0.07515035 0.055293214 0.01034629
0.16032988 -0.014313357 0.04265214 -0.15082388 0.26200902 -0.19332446 0.2641111 0.0058608763
-0.36503392 0.019466061 0.23913632 0.09218618 -0.3014495 -0.04512222 -0.3447527 0.055181343
0.23156202 0.023043301 -0.34868926 0.015460791 0.2272332 0.16807827 -0.06334923 -0.11043129
-0.29953155 0.11831755 -0.20635097 -0.029643063 -0.0039098444 0.08447843 -0.3806644 0.0731188
-0.086415 0.01684518 0.11083269 0.10700322 -0.011901358 0.009027371 -0.050470926
00000000: 9920 f7ba 3433 2c3e d460 c5bd fd8e e83b
00000010: 7ed6 993d 6de8 99bd 237b 623d 7c83 293c
00000020: 842d 243e 9282 6abc 03b4 2e3d 9371 1abe
00000030: 0c26 863e d9f6 45be 9239 873e 980c c03b
00000040: bae5 babe 4a77 9f3c 27e0 743e 1ccc bc3d
00000050: 9757 9abe 14d2 38bd 6d83 b0be d505 623d
00000060: 981e 6d3e 4ec5 bc3c 6687 b2be 424f 7d3c
00000070: d2af 683e b61c 2c3e 3ebd 81bd cd29 e2bd
00000080: 335c 99be 7950 f23d ab4d 53be 02d6 f2bc
00000090: 271e 80bb 0703 ad3d 72e6 c2be 4fbf 953d
000000a0: 59fa b0bd e7fe 893c 40fc e23d 8124 db3d
000000b0: eafd 42bc 8ae7 133c 9aba 4ebd
