asl-sign-language-detector-python/models/final_trail_model.pth (torch, 424563 bytes, 8 tensors)

conv1.weight f4 [16, 1, 3, 3]
00000000: 6e3c 5a3c bbb4 90bd 650a a8be ac82 d3ba
00000010: dd7e e43e 0c4b 3e3e 761b a9be 8a96 733b
00000020: 8975 86bd f726 013f fc09 ef3e 4001 c73e
00000030: 7b3c 8abe 6f7b 7fbe 032e 6c3e 7fb8 5abe
00000040: 4eb4 bfbe 9eeb dbbe 667e 203d 41aa 81bd
00000050: c844 b2be 4cd0 973e 42f9 c93e 9749 d3be
00000060: 3dc4 76be 8c60 263f 9fc1 06be 5ff0 42bc
00000070: 26ae 433e 01d6 9b3e 963d efbe 05fb bdbd
00000080: 1d2c de3e da26 10bf 07d4 3abd 7879 fb3e
00000090: 68e3 2dbe 6ff7 94be e8ad ccbd 8ec5 9ebe
000000a0: e3fb 10bd 93ac 5c3e 6590 3b3e 80be 813e
000000b0: dec9 303e 2d21 dc3e 39c2 673d affb 993c
000000c0: 2cc5 85bc e693 f93e 1b80 c13e 30e1 08bf
000000d0: 4848 e0be 3cf2 dc3e 122e 9e3e 0fcb 9fbd
000000e0: ee27 6dbd d75a 08bd 3cf8 2abe 82f0 673d
000000f0: 89ab 1dbe a4f9 b0bd 2bb5 613e f111 963d
00000100: a355 85be 3319 c9be fc7e 403e 0546 303d
00000110: c3c7 443e 465b 493d 106f 353e 7d6f bc3d
00000120: e516 ec3d 527a c13e 8a32 8fbd ccdb b93d
00000130: e280 c03e 0cb3 d4bd 3c57 b43e f0e8 173e
00000140: 3e58 44bf e4e9 13bb a86e 12be 9aac 42be
00000150: 9778 1cbe 9227 893c 69c0 2cbe b27b 693d
00000160: 45ad 2fbe 0da8 35bd 56fc e8be 731c d23e
00000170: 8523 0b3d 3a1b 603e 0217 373e b7cf ccbd
00000180: c5eb 8cbe e450 673e 3c89 49be 1207 bcbe
00000190: 316b 47be edbf 73bc 68a6 41bd a1e1 043d
000001a0: a8d5 3a3e 0aff 0cbe 462d b63e d1fb 2b3e
000001b0: a436 74be 5a4f 94be 94b9 3abe b82b be3c
000001c0: 7fe2 bebe 1380 28be 1408 043f 8377 9d3e
000001d0: 388f 653e ff63 71bd 51c2 83be 60c3 383e
000001e0: 8763 213e 2a0f 053e 8d59 743e b9a3 ed3d
000001f0: 07b7 cc3d 67b6 3abe cefb b13e b0f7 febd
00000200: 67f2 44be 9913 d63e 1a9a 64be 76c4 8abe
00000210: 0841 063f 3462 843e be4f bebe 7bc1 333f
00000220: e84d 093d 94f1 c8be 4d9e 02be 9984 1abf
00000230: ab9b 7d3e 84a2 ea3d 2887 b4be d62e 043f
0.013320072 -0.070657216 -0.3282043 -0.0016136966 0.4462804 0.18583316 -0.33028764 0.0037168586
-0.06565387 0.5045008 0.46687305 0.3886814 -0.26999268 -0.2494943 0.23064427 -0.21359442
-0.3744225 -0.429532 0.039183043 -0.063313015 -0.348181 0.29651105 0.3944798 -0.41267082
-0.24098296 0.6499107 -0.13159798 -0.011898129 0.19109401 0.3043671 -0.46726674 -0.09276394
0.4339303 -0.5630928 -0.04561236 0.4911611 -0.1698128 -0.29095027 -0.099941075 -0.31010097
-0.035396468 0.21550207 0.18316801 0.25340652 0.17264506 0.4299406 0.05658171 0.01879677
-0.01632937 0.4874565 0.3779305 -0.5346861 -0.43805146 0.4315356 0.30894524 -0.07802402
-0.057899408 -0.033289757 -0.16696256 0.05662585 -0.15397467 -0.08641365 0.22041766 0.07327641
-0.26041898 -0.39277038 0.1879844 0.043035526 0.19216828 0.04915931 0.17718148 0.09200952
0.11527804 0.37788635 -0.069920614 0.09075126 0.3759833 -0.10385713 0.35222805 0.14834952
-0.76697147 -0.002256983 -0.14300025 -0.19011155 -0.15280376 0.016742501 -0.16870274 0.05700273
-0.17155941 -0.04434972 -0.45505017 0.4103733 0.03396942 0.21885386 0.1787987 -0.10000556
-0.27523628 0.22589451 -0.19681257 -0.36724144 -0.19474484 -0.014877302 -0.047277838 0.03244174
0.18245566 -0.13769165 0.35581416 0.16795279 -0.23848969 -0.2896679 -0.18234855 0.023214206
-0.37282178 -0.16455106 0.51574826 0.30755243 0.22417915 -0.058933254 -0.2573419 0.1804328
0.15760623 0.12994066 0.23862286 0.11603493 0.09995847 -0.18233643 0.34762424 -0.124495864
-0.19233094 0.41811827 -0.2232441 -0.27103013 0.5244298 0.25856173 -0.37170213 0.702171
0.033521563 -0.3924681 -0.127557 -0.6035858 0.24766414 0.11456779 -0.35259366 0.51633966

conv1.bias f4 [16]
00000000: be7b 84be 0fbd c7bc d80b cebd c2b7 26bb
00000010: 34f1 ebbd ce34 afbe 977e 49be aacb 66bc
00000020: 3056 54be fb7a 713d 9b06 46be e8a3 e1bd
00000030: 21b4 2fbe 9e52 57bd 8fe1 79bc 2c5f 05ba
-0.25875658 -0.024382142 -0.10060853 -0.0025439118 -0.11520615 -0.34219974 -0.19677196 -0.014086643
-0.20736003 0.058955174 -0.19338457 -0.11017591 -0.17158557 -0.052569024 -0.015251531 -0.0005087729

conv2.weight f4 [32, 16, 3, 3]
00000000: 0d1b 12bd 9917 10be 9e17 72be e1a4 c93d
00000010: 45ec 42be c2ad 3c3e 2fe1 a1bd 1e66 9a3d
00000020: 4c91 df3c 9062 2a3e 815f 1c3d 0d86 06bf
00000030: 8126 693e 917b 293d 2692 55be f4a5 e43e
00000040: 6924 983e dd4f 0cbf 04c3 b0be afdc 67bb
00000050: aa2a f73c 62ae 903b 0927 2ebe 66cc 18bf
00000060: 3de1 1bbf 958d d2be 08a1 d4be 5a57 1ebe
00000070: ab9f 65be 60df 1bbf 2650 91be e47c d7be
00000080: e5d3 c9bd 44b6 23bf 1ddc c4be 1487 833b
00000090: 1203 543e 485c 00be a93d 01bf cbd1 9d3e
000000a0: 5f86 d5be 2c2c 3e3e e119 8fbe 8b61 803e
000000b0: fe74 533d d397 10be 443f 5c3d 1cfd 9cbe
000000c0: 6dba 8b3e 16c3 6b3d 1a3a b4be 6622 0b3e
000000d0: 1890 f2bb 61cf a4be 99e4 8e3d 4aa9 32bc
000000e0: fa99 aa3d a9de 3ebe 12a6 7bbd edd3 083d
000000f0: 3275 05bc ab84 e13d e869 b8bd 09d1 80bd
00000100: 431c abbe 7312 b2be 2356 423e 19d9 92be
00000110: 6414 fcbe 9e92 80be 2d40 14be 0400 86be
00000120: f2c7 503d 1731 223e ab51 9b3d 0a9d 55bd
00000130: 9f4b 8a3d 8409 2abe e40c 5cbe 10f8 86be
00000140: 1023 9fbe a86c 69bc 1f00 723d bc56 a23d
00000150: 5d33 ef3b 530f a23c 3f92 95bb 69c1 e63b
00000160: e29c a73d 1db1 cf3d 964a a03c f339 c83d
00000170: 6241 24bf 83e9 303c 5021 c63c a23e 9d3d
00000180: 9ede 2fbe 891f 6e3d 4b65 b23e 6459 1d3e
00000190: 95b3 fabd befb f3be bbe8 ee3d 3896 cfbe
000001a0: bd85 253e 4c8a 6dbe 2dbc 403e 05f7 cd3d
000001b0: 57a2 0f3e 185c 39be 96b8 2dbf 0663 893e
000001c0: e4fe 64bd 5113 24bf 8760 0abe 8d58 003d
000001d0: 34d2 c1bd 35fe 573e c959 f53d cc58 a7be
000001e0: 43bc ae3e b543 183d 0c4c c7be 4b31 953e
000001f0: 428e a8be 147c ac3e cded c43c 9f7c 663e
00000200: 7458 ae3e 633b c13d 7195 0e3d 7aa5 c03d
00000210: 8755 1bbe 8361 95be b411 86be 49da a9bd
00000220: e1bc 8cbe 7fe6 1ebe 64b2 07bd 915d b0bd
00000230: e3a5 a53d c406 2bbd d125 fb3a 05e5 cfbe
00000240: 8859 a03c 42b9 2c3e e695 263e ad05 4abc
00000250: f747 d33e a45a 18be f173 a33e 5b1f e5bc
00000260: d46b 78bd 5c26 8e3e 356e 86ba d950 823c
00000270: 75e6 103e f33c 9b3e fc9c fd3d f24f d3be
00000280: a445 37be 38a4 66be 83fb 95bd e7b4 523e
00000290: 1f01 95be 9568 48be 875b 8d3d 2ce1 1a3d
000002a0: 2dbf b13e f16d 503e aa2a 073d 9b03 23be
000002b0: 3866 5abc 8103 d23d a634 70be 8f8d 5bbd
000002c0: fad0 9f3c f284 343e 0635 95be 3a38 d8bc
000002d0: 9bc4 2fbd fbd8 a63d fe46 433e 26d7 24bf
000002e0: fdc0 00be 0825 b3bd 87a8 193e e392 753d
000002f0: 2957 873d de6c 893e 93d2 42be 03f5 79be
00000300: a3ca b93d fd2b e03d 400c a6bd 5a19 06bd
00000310: d3b7 8c3e e9d6 1fbe 37e1 cf3d 1984 e43c
00000320: 9e8b 843c 5735 6fbe 7284 12be 7cc5 a0bd
00000330: aa84 06be 8290 51be 70ae 9a3c a25a 5e3d
00000340: 9188 fc3d fb95 08be d496 14be 5308 4dbe
00000350: 6053 95bd 4594 ea3e 0993 a03e 4325 743d
00000360: 7507 173e 8eac b43c 5b87 153e 3053 fabd
00000370: 2831 57bd 9486 58bd 7939 c13d 19b2 12bd
00000380: 5e4c fcbd 537c 32be 39d7 dcbd 11c0 c13d
00000390: 8717 5abe 122a 31be 9db8 adbd b971 99be
000003a0: c320 15be e859 13be e332 a6bd 9034 2a3c
000003b0: 0f59 003e 87a3 2abe 4c2c 073e 1e9f ecbc
000003c0: 67dc b6bd c488 3cbe 259d 8ebe 9c30 8b3d
000003d0: 8397 073e 50c5 3a3d 85c5 e4be 155e 53bd
000003e0: 973d c3bd dbad 7e3e da67 84bd 0db0 383e
000003f0: c5fa 5abb 779e a93e f52f c53d 4a8c 233d
-0.03567033 -0.14071502 -0.23641822 0.09845901 -0.19035442 0.18425658 -0.079042785 0.075390086
0.027290963 0.16639161 0.038177017 -0.52548295 0.22768594 0.041377608 -0.20856532 0.44657862
0.2971528 -0.5480936 -0.34523785 -0.003537934 0.030171711 0.0044153193 -0.17007078 -0.5968689
-0.6089056 -0.41123644 -0.41529107 -0.1546301 -0.2242419 -0.6088772 -0.2838146 -0.4208747
-0.09854869 -0.6394999 -0.38449183 0.0040139053 0.20704296 -0.12535203 -0.5048471 0.30824122
-0.4170408 0.18571538 -0.27949432 0.2507442 0.051625244 -0.14120416 0.053771272 -0.30661857
0.2729067 0.057559095 -0.35200578 0.1358734 -0.007402431 -0.32189468 0.06977195 -0.0109046195
0.0833015 -0.18639626 -0.061437674 0.033405233 -0.008145617 0.110116325 -0.09004575 -0.0628987
-0.3342 -0.347797 0.18978171 -0.28681257 -0.49234307 -0.2511186 -0.14477606 -0.26171887
0.050971933 0.15839039 0.07583936 -0.052151717 0.06752705 -0.16605192 -0.21489292 -0.26361132
-0.31081438 -0.014247097 0.059082147 0.079266995 0.007299824 0.019782698 -0.004564553 0.0070420993
0.0818422 0.101412036 0.019566815 0.09776678 -0.64162266 0.010797861 0.024185807 0.07677962
-0.17174765 0.058135543 0.34842905 0.15366131 -0.12241284 -0.47653002 0.116654836 -0.40544295
0.16164298 -0.23197287 0.18821783 0.10056881 0.14026771 -0.18101537 -0.6785978 0.2683336
-0.055907145 -0.64091974 -0.13513385 0.03133445 -0.09463921 0.21093066 0.11980016 -0.32684934
0.34128007 0.037173945 -0.38925207 0.2913917 -0.32921034 0.33688414 0.024039173 0.22508477
0.3405186 0.09435155 0.034810487 0.09406562 -0.15169345 -0.29175958 -0.2618538 -0.08293588
-0.27487853 -0.15517615 -0.03312911 -0.086115964 0.08088281 -0.0417545 0.001916105 -0.40604416
0.019573942 0.16867545 0.16268119 -0.012330455 0.41265842 -0.14878327 0.31924394 -0.027969053
-0.060649708 0.2776364 -0.0010256233 0.015907692 0.14150412 0.30319938 0.12383458 -0.4127193
-0.1789766 -0.22523582 -0.07323363 0.20576821 -0.29102418 -0.19571145 0.06902223 0.037812397
0.34716168 0.2035444 0.032999672 -0.15919344 -0.013330035 0.102545746 -0.23457584 -0.053601798
0.019508827 0.1762884 -0.29142016 -0.026393998 -0.042912107 0.081468545 0.1907005 -0.6439079
-0.12573619 -0.087472975 0.15005694 0.059954535 0.06608421 0.26840872 -0.1902564 -0.24409871
0.09071853 0.1094589 -0.08107805 -0.03273902 0.27483997 -0.15609325 0.10150378 0.02789502
0.016179856 -0.23360191 -0.14308336 -0.07850167 -0.13136545 -0.20465282 0.018882006 0.054285653
0.123307355 -0.13338463 -0.14510661 -0.20022707 -0.07291293 0.45816246 0.3136218 0.059605848
0.14748938 0.022054937 0.14602415 -0.12222898 -0.052537113 -0.05286272 0.0943479 -0.03581438
-0.123192534 -0.17430238 -0.10783238 0.09460462 -0.21298037 -0.17301205 -0.08482478 -0.29969576
-0.14563279 -0.14389765 -0.081151746 0.010388508 0.12533973 -0.16663943 0.13200492 -0.028884467
-0.08928757 -0.18411547 -0.27854267 0.06796381 0.13241391 0.045598328 -0.44681945 -0.051603395
-0.09533232 0.24871008 -0.064651206 0.18035908 -0.003341363 0.33128712 0.09628288 0.039928712

conv2.bias f4 [32]
00000000: 0544 963d 04b9 54be 2fc6 d0bd 2c06 25be
00000010: 71bd cdbd 0f6d 26bd 796a 90bd 7b66 20be
00000020: b706 13be 7a7f 1ebe caae 283d 2b0a 663d
00000030: 3f7f 2b3c 6978 bcbd 2fc8 0ebe d988 1ebe
00000040: b66a 59bd 5ba8 55be 53fb e6bd 5ab4 cfbd
00000050: 7e6f 8c3d 0d7f 053c ed33 7dbe f178 533d
00000060: 55ed fdbd 95d4 13be 698a ad3c 8940 5d3c
00000070: 4f2d a8be 98e9 02be 9de8 e83c ebca 3fbd
0.073371924 -0.20773703 -0.101940505 -0.16115636 -0.10045899 -0.04063135 -0.07051558 -0.15664093
-0.1435803 -0.15478316 0.041182317 0.05616204 0.01046735 -0.09202654 -0.13943551 -0.1548189
-0.053080283 -0.20865004 -0.11278405 -0.10141821 0.06857203 0.008147967 -0.2472684 0.05162901
-0.12398783 -0.14436562 0.021184163 0.013504156 -0.32847068 -0.12784421 0.028431231 -0.046824377

fc1.weight f4 [64, 1568]
00000000: 3693 b8be 232f 2b3c d7df 293e c0d7 15be
00000010: 4973 613e 9a1e 8f3e 22a9 ee3e 67c3 183d
00000020: 3ffa 103e cbe9 673e 7792 273e 55fb 863c
00000030: e772 90be 03a4 62be 00c5 0a3e fef6 d93e
00000040: 1241 be3d d682 203e 3a05 28bd 3f61 9cbd
00000050: 1f84 9cbe a837 443e e7a8 153f ab3c c03d
00000060: 41ce 843e 940c bb3d 6ff7 503e 28ac de3d
00000070: 049d 2b3d b9be 033e d801 1c3e 245a 4b3e
00000080: 182f aa3e 12d1 063e 837b d53b 7d4f 223e
00000090: dc0b 683d 08b5 303d 06a1 913e f3b1 5e3e
000000a0: 7186 07bd 285c 9c3e 8875 1f3d 3f32 3b3f
000000b0: b5c8 c53d 482c 903e 9000 4cbe b746 aabc
000000c0: 4cfd a53e da06 29bd 0933 1e3e a2e0 67bd
000000d0: 84a0 b6bd d84f ac3d 50fb 2bbe 5973 383e
000000e0: ca75 733d 25b4 bbbe 57d1 33be 7ab0 c1bd
000000f0: fe3b 893e d385 383e ea93 863d ee1e 31bc
00000100: c28d d4bd e3e5 1ebe ac0a 2f3d dec4 ee3d
00000110: 9d67 94bd 26e4 e3be 4a9c 393e f3cd 9dbd
00000120: b651 0f3d 542d 233d 6ddc 0a3e e60f 4ebe
00000130: eac6 88be 3210 cabd cebf febd 73ab 143e
00000140: 4968 25bd 77f1 0bbe 840a b6bd b722 b93c
00000150: e353 a3bd 4bb8 78be ee91 7cbd 7c8a abbb
00000160: b31a c7bd 9bd6 1b3e c040 963e 89dc d03c
00000170: 0cdc 72bc f479 563c 85fb 063d 3a72 f13d
00000180: ccba a9bc db69 c9bd b1e4 533e 3cad a73d
00000190: 8d97 38be b355 2fbe a516 41bd 516e c43c
000001a0: d31d 553e 1be9 c23d a061 6b3e 1e04 b73b
000001b0: cc21 433d acfb a53e 4b0a ab3d d822 393c
000001c0: 0760 913e f66c 1e3c 0cf3 6b3e b1bb 833e
000001d0: 644e ad3e d741 e93d bb27 82bd 267f 7b3d
000001e0: d85f 9b3e caee 843e ea2e c03e ef83 883e
000001f0: 1ba0 d8bd 6d2f 01bd e110 8abe 7e13 223e
00000200: a006 813e b2d1 593e ffb3 0e3c eb7f 9dbe
00000210: 813a 9b3a 3794 d2bd fc4e 9d3e 10df 833e
00000220: 7308 debd fe45 0dbf 34b7 77be c62f f0bd
00000230: 6448 433d c152 613e f0da 353e 4e34 1f3d
00000240: dc40 c7bd 7bad 55bd d830 98be 3c11 9bbd
00000250: 7929 96bd be64 c6bd deee 61bd 6b8a dfbe
00000260: b26f 31be 8ad0 0c3e de9d e3bd 6473 81be
00000270: 2561 77be 2947 90bd 4e5d b7bd 7019 133d
00000280: ca52 f23d 6a1f 2bbe 7c5b c4bd 0d77 92be
00000290: 7cb5 703e 2091 233e 7971 523e c12c 62bd
000002a0: e6b8 a6bd fa1a d3bc 5dd2 34bc 6e89 423e
000002b0: 6dda 5a3d 946a 843d a4bc 73be 3c58 083e
000002c0: ca87 a73d 3d11 893d ec2b 843c 3feb 0a3c
000002d0: e7d3 2ebd 6149 bcbb b33b 3f3d 1e1c 153c
000002e0: 3caa a63c f795 bb3d 51c1 d83d 181c 103e
000002f0: 4c8f 993c 9cac d3be 62e7 35be 44fd 093e
00000300: b836 0f3e 029a 663e 671f 36be 78d6 a43e
00000310: c529 a13e 6078 a93d 58a7 553d f701 5cbe
00000320: 883c 143e 2a8d bfbd 2756 033e 0b60 5c3d
00000330: 3733 82bd 0b28 43be ffc5 11bd f018 b23d
00000340: 3c41 d33d 25ca 3a3e a285 1f3e 0ce9 b13d
00000350: 973e 80be 1e26 9ebc ccfc fd3d 361a 0fbe
00000360: 9967 c13d 23e7 79bc 8b6e e03b cd83 333d
00000370: bfbf 3f3b 30b8 523d 36b5 a3bd f154 fa3b
00000380: 7f3a 7abe 36df a3bd ef9f f3bc 9aa3 d43d
00000390: d256 aabd ff65 f63d 9672 143b acda d2bd
000003a0: 0553 aabc ab11 ce3c cea2 bc3e 1916 213d
000003b0: 91ef 70bd 59d5 943c ae6b 34be 4743 fe3d
000003c0: e39d 263d d541 63bd c11e 2dbe 1a75 34be
000003d0: 4fab b83e 578d 893e e0c1 dbbd ab3a 053d
000003e0: 5269 b13d 81b7 d4bc 185a 093e 5a2b 1b3e
000003f0: 1150 a23c d230 bfbd 2852 dbbc 93af 1b3e
-0.36049813 0.01044825 0.16589294 -0.14633083 0.22016634 0.27953035 0.46613413 0.037295725
0.14157961 0.22647779 0.16364466 0.016477266 -0.28212664 -0.22132878 0.13551712 0.42571253
0.09289755 0.1567491 -0.04102061 -0.07635736 -0.3056955 0.19161856 0.5846085 0.093865715
0.2593861 0.091332585 0.20406888 0.1087268 0.04189779 0.12865724 0.15235078 0.19858605
0.33239055 0.13165691 0.006514968 0.15850635 0.056651935 0.043141395 0.28443164 0.2174757
-0.033087198 0.3053906 0.038930446 0.73123544 0.096574225 0.28158784 -0.1992209 -0.020785673
0.32419813 -0.0412663 0.15449156 -0.05661071 -0.08917335 0.084136665 -0.16795087 0.18012752
0.059438504 -0.36660877 -0.17560326 -0.09457488 0.26803583 0.180198 0.06571181 -0.010810597
-0.10378601 -0.15517382 0.042734787 0.11658643 -0.07246325 -0.4451 0.18126026 -0.07705297
0.034990035 0.03983815 0.13560648 -0.20123252 -0.2671426 -0.0986637 -0.124389276 0.14518528
-0.040382657 -0.1366633 -0.088887244 0.022599561 -0.079749845 -0.24289052 -0.061662607 -0.0052350145
-0.09721889 0.15218584 0.29346275 0.025495784 -0.014822971 0.013090599 0.03295471 0.11789365
-0.020718955 -0.098346435 0.20692708 0.08187339 -0.18026562 -0.17122535 -0.047140736 0.023978384
0.20812158 0.095171176 0.2298646 0.0055852076 0.047639653 0.32418573 0.083515726 0.011299811
0.28393576 0.009669533 0.23041934 0.25729135 0.3384887 0.11389511 -0.06355234 0.061400555
0.3034656 0.25963432 0.37535793 0.26663157 -0.10577413 -0.03153937 -0.26966003 0.15827748
0.25200367 0.21271399 0.008709907 -0.30761656 0.0011842997 -0.10282176 0.30724323 0.2575612
-0.10841455 -0.55184925 -0.2419098 -0.11727862 0.04767646 0.22004224 0.177593 0.03886824
-0.09729168 -0.052167397 -0.29724765 -0.075716466 -0.07332129 -0.09687184 -0.055159442 -0.43660292
-0.17327765 0.13751426 -0.11114095 -0.2528335 -0.24158151 -0.07044823 -0.08953343 0.03591293
0.11832197 -0.16711202 -0.09587762 -0.28606454 0.23506731 0.1597333 0.20551099 -0.055218462
-0.08140735 -0.0257697 -0.011036483 0.18997738 0.053430963 0.06465641 -0.2380243 0.13314909
0.081801966 0.06692741 0.016134225 0.008478939 -0.042682555 -0.005746052 0.046687793 0.009100942
0.020344846 0.09159463 0.10583747 0.14073217 0.018745087 -0.41342628 -0.17764047 0.1347552
0.13985717 0.22519687 -0.17785417 0.32194877 0.3147718 0.08274913 0.052161545 -0.21485125
0.14476216 -0.09353097 0.12825833 0.05380253 -0.06357425 -0.19058244 -0.035589214 0.08696163
0.10315177 0.18241175 0.1557832 0.08687028 -0.25047752 -0.019305285 0.12401733 -0.13974842
0.09443588 -0.015252861 0.0068491152 0.043826867 0.0029258577 0.051445186 -0.079935476 0.0076395203
-0.24436377 -0.080015585 -0.029739348 0.10382767 -0.08317341 0.12031173 0.0022651306 -0.102956146
-0.02079154 0.02515491 0.3684296 0.039327715 -0.05882222 0.018168138 -0.17619202 0.12415176
0.040677916 -0.055482704 -0.16906263 -0.17622796 0.36068198 0.26865646 -0.10730338 0.032526653
0.086626664 -0.025966408 0.13413274 0.15153256 0.01981357 -0.093354836 -0.026772574 0.15203695

fc1.bias f4 [64]
00000000: 4f35 983e 48c8 243d 422d 22bd 9fa1 ecbb
00000010: 6618 69bb dbcf e7bc e414 843d 8a90 91bc
00000020: 60f6 f33d f287 e03a 8d8d 56be cddb 2a3e
00000030: f9f6 d2bd e232 9f3e a255 2cbc 9e88 96bd
00000040: d23f 59bc ee85 97bc 1dc6 be3d 998d e8bc
00000050: 7726 44bd 7b4c 06bc d64a 333b ff30 f03c
00000060: 9e39 d93e 438a f03d 04a9 a9be bfd8 69be
00000070: 76c1 b4bd bda3 8b3d 45b2 2c3e ea0f e8bc
00000080: b840 3ebe a51d 0fbd 9415 9c3e c1c0 293e
00000090: 28fa b0bc 7ed6 493e c325 5abd ad35 a93e
000000a0: b07c b3bc caa7 7abd c7da 06be 70e2 563e
000000b0: f129 cebd b414 953b 9e11 22bc c954 213d
000000c0: 3937 0cbe fd57 19bb 8641 703c 3bbe fb3d
000000d0: ecfb b8bd 4eda 93bc 3f04 2cbd 7687 c7bd
000000e0: dc7f 12bd 08bc 63bd 0542 373e e6bc a33d
000000f0: d8b6 33be 1e6a d8bc 35ad 4abe 9213 363e
0.2972817 0.040230066 -0.039593942 -0.007221415 -0.003556752 -0.028297355 0.06449297 -0.017769117
0.11912227 0.0017130359 -0.20952435 0.1668541 -0.103010125 0.31093508 -0.010518463 -0.073502764
-0.013259845 -0.01849648 0.09315131 -0.028387832 -0.047888245 -0.008196945 0.0027357838 0.029320238
0.4242677 0.11745121 -0.3313676 -0.22836588 -0.08825962 0.0681834 0.1686488 -0.0283279
-0.18579376 -0.03494038 0.30485213 0.16577436 -0.021603659 0.19710729 -0.05325867 0.33048764
-0.021910042 -0.061195172 -0.13169394 0.20984817 -0.100665934 0.004549587 -0.009891896 0.039387498
-0.13692941 -0.0023398392 0.0146640595 0.12292143 -0.09032425 -0.018048432 -0.041996237 -0.09742634
-0.035766467 -0.055599242 0.17896278 0.07995014 -0.17550218 -0.026417788 -0.19792636 0.17780903

fc2.weight f4 [3, 64]
00000000: 792b 533d dbcb 953b 7c59 9b3d ee98 d63d
00000010: 58df a6bd 10fa 9abd c543 a23d 181d c23d
00000020: c143 91bd 86a1 f13d 34f8 b6bd f6fe cc3d
00000030: 54f6 753d b378 983d 50a5 f5bc 7268 d43d
00000040: d817 503d 8846 183d 8d9a 3e3d a023 773c
00000050: 80ca f2ba f4b5 e8bd ecb5 d8bd 81fd d0bd
00000060: 81f7 99bd 47df ad3d c59a 8d3d 9e38 bf3d
00000070: 87e9 f8bd aba2 4dbd 2b80 17be ea50 953d
00000080: 5682 f4bd c274 e33d 12af f5bc 3164 d83d
00000090: 9c94 c73d a5dc f4bd 50c9 cfbd 39b5 fbbd
000000a0: c0bf aabd 0639 a6bd 7a97 8bbc 128c 0cbd
000000b0: 52ac a4bd e3b7 ccbc e73b a83d 26fa 593d
000000c0: a121 18be 2e8c ad3d 53d0 bb3d 4958 863d
000000d0: 3354 b63d 4861 48bd 8424 97bd d43e ab3d
000000e0: b061 ce3c 69de 493d cf3c ccbc 66a1 ce3b
000000f0: 5eb3 9fbd 3a85 a03d 444f 0abe 3941 f83d
00000100: a283 773d 7f18 9fbd c81b aa3d b475 4fbd
00000110: 6042 aabc 1c8d da3d 43bb 9e3a a88e fcbc
00000120: e39d 02be f0f0 26bd f768 e5bc 34af f63c
00000130: a238 f13d ad84 863d 70be 7dbc 76c1 e93d
00000140: f03f 173c 1089 6b3d 7e68 0b3d 280b eabc
00000150: fead d1bd ea47 cb3d 82f9 fe3d 06b0 df3d
00000160: e30d f43c 0db9 98ba 5c2f 0e3e 9d0b 5a3a
00000170: 2508 53bd 70a3 b5bd f998 84bd 7033 c1bc
00000180: 4125 a83d a4ea 253d e713 f73d 5aba bb3c
00000190: 26b8 89bd 2b73 c0bc 5c71 47bd e18b 14bd
000001a0: 0c28 8abd 110c 723b 647f 8dbd d417 983d
000001b0: a05f 67bc f363 62bb 4bdf 64bd ce62 46bd
000001c0: 046f 133d e4a8 77bd 248f 273e 345d 32bc
000001d0: 5bfa 12be e491 20bd 68ce 27bd dba8 64bd
000001e0: dc77 e8bd f855 463d 32df 87bd 7010 adbc
000001f0: 10b6 62bc 4e86 d83d 84c7 9fbd cb6c f7bd
00000200: 4eb2 36bd 1e7f 4c3c 7ae6 c2bd 007b a9bb
00000210: a261 983d e00d 2bbc 16b0 0bbe 0833 f7bd
00000220: c5ec 583c 0099 4fbd d34a 8c3d 368a 1abd
00000230: 1ec8 fe3d 163c dd3c e6ba 86bd 7ac9 edbd
00000240: 6eca 933d bcbe 573d b8f2 b03d 5290 83bd
00000250: 7e6e b3bd 5032 3e3d 1031 363c c7df 21bd
00000260: dda6 d0bd 3121 95bd 0065 113d 3182 99bd
00000270: 4287 cb3d f8e2 873d dbed e13b 503e f43d
00000280: 4b1e 03bd b412 c43d c425 eebd 965a b7bd
00000290: 98f9 2c3d 0783 f73d c407 0fbd b746 703d
000002a0: 78d5 8e3c bcb4 d2bd 9f67 b5bd c2dc 84bd
000002b0: 0eea ad3d b1a9 94bd 7e3e c53d c04c abbc
000002c0: edf0 853d bcf8 453d d81b b9bb 90d4 d53c
000002d0: bc63 0f3e d0d8 2dbd c85f 44bd 2c0b 633c
000002e0: 08db 91bc 3c16 b83d 8f77 963d ed8d 09be
000002f0: 608e 7cbc d621 853d ba93 a539 77f9 1bbc
0.05155513 0.0045714206 0.07585427 0.10478388 -0.08148068 -0.07567227 0.07923082 0.094782054
-0.07093001 0.11798386 -0.0893406 0.100095674 0.06004937 0.074448965 -0.029986054 0.10371484
0.05080399 0.03717664 0.04653411 0.015084177 -0.0018523484 -0.1136283 -0.10581574 -0.10204602
-0.07517911 0.084898524 0.069142856 0.09336971 -0.12153917 -0.05020396 -0.14794986 0.07290824
-0.11938922 0.11106254 -0.029990707 0.10565985 0.09745142 -0.11956147 -0.10145819 -0.12290425
-0.08337355 -0.08116345 -0.017040003 -0.03431327 -0.0804068 -0.024990028 0.082145505 0.053217076
-0.14856578 0.08474003 0.09170594 0.06559808 0.089027785 -0.0489209 -0.07380012 0.08361593
0.025193065 0.049284372 -0.02493134 0.0063058613 -0.077978835 0.07837911 -0.135068 0.12121815
0.06042827 -0.07768344 0.0830608 -0.05064936 -0.020783603 0.10671446 0.0012110252 -0.030829743
-0.12755542 -0.04075712 -0.028004153 0.03011284 0.1177838 0.06568275 -0.015487298 0.11413853
0.0092315525 0.05750376 0.0340352 -0.028569773 -0.102382645 0.09925826 0.124499336 0.10922246
0.029791778 -0.0011651829 0.13885254 0.00083177706 -0.05152144 -0.08869064 -0.0647449 -0.023584098
0.082102306 0.040506974 0.12064343 0.022916008 -0.06724577 -0.023492416 -0.048692092 -0.03626621
-0.067459196 0.0036933462 -0.069090635 0.0742642 -0.01412192 -0.0034544438 -0.05587701 -0.04843407
0.035994545 -0.0604638 0.16363198 -0.010886479 -0.14353316 -0.039201632 -0.04096833 -0.055825096
-0.11350986 0.04842183 -0.06634368 -0.021126002 -0.013837352 0.105724916 -0.078017265 -0.120812975
-0.04460364 0.012481479 -0.09516616 -0.0051721334 0.07440497 -0.01044032 -0.1364139 -0.1207028
0.013240044 -0.05068302 0.06850209 -0.037729464 0.12440513 0.02700619 -0.06578617 -0.11610694
0.07216345 0.052672133 0.08640045 -0.06424011 -0.08761309 0.0464347 0.011120096 -0.03952005
-0.10188077 -0.072817214 0.03549671 -0.07495535 0.09937908 0.06635088 0.0068948097 0.11925948
-0.03201131 0.0957388 -0.11628297 -0.08952825 0.04223022 0.12085538 -0.034919515 0.05866119
0.017435774 -0.102883786 -0.08857655 -0.06487419 0.08491908 -0.072589286 0.0963106 -0.02091062
0.065400936 0.048332915 -0.005649071 0.026102334 0.1400289 -0.042443097 -0.047942907 0.013857644
-0.017804638 0.08988616 0.07347023 -0.13433047 -0.015414804 0.06500594 0.00031581317 -0.009519926

fc2.bias f4 [3]
00000000: 95bb 033d 94eb a6bd 8087 51bd
0.032161314 -0.08150402 -0.051154613
