asl-sign-language-detector-python/models/lstm_model.pth (torch, 11312 bytes, 8 tensors)

fc1.weight f4 [16, 2]
000000 bc 0a 79 be fc 87 d1 be b3 a7 1f be 57 ae e7 be
       -0.24320501 -0.4092406 -0.15591316 -0.45250198
000010 20 a8 ea be 68 44 1b be 59 a2 6b bf dc bf 8a 3c
       -0.45831394 -0.15162814 -0.920446 0.016937189
000020 45 db e8 3e 6f 56 dd 3d 3e e7 58 bf 3e e1 a4 3e
       0.4547979 0.108075015 -0.8472785 0.32203096
000030 61 c7 eb be 62 76 2b 3f bf 11 74 bf 1b bc 6f 3f
       -0.46050552 0.6697751 -0.9533958 0.936464
000040 2f 1e 33 3f 23 72 ba 3b eb 2b 92 3e 2c 98 1e be
       0.6996793 0.0056898757 0.28549132 -0.15487736
000050 8b 39 82 3c 8e a7 0e 3e e1 c1 05 be 4b 9b 76 3f
       0.01589658 0.13931105 -0.1306224 0.9633071
000060 c8 de ae be c2 44 28 bf e5 c9 0c 3e df fc ec be
       -0.34154344 -0.65729916 0.13748892 -0.46286675
000070 58 1c fc bc 19 e0 e6 3e 8b 3a f3 3d 38 2a 9b bd
       -0.030775234 0.45092848 0.118764006 -0.07576412

fc1.bias f4 [16]
000000 cb 98 03 bf 78 42 b3 be 3d 8d 38 3f 93 bf 19 bf
       -0.5140502 -0.3501165 0.7209051 -0.60057944
000010 75 fb 2d 3f cc b2 03 bc c2 a2 7d be 4a 46 86 be
       0.6796182 -0.008038234 -0.24769118 -0.262255
000020 5f ca 42 3e 41 12 29 3f c7 2e 04 3f c4 fd 81 3d
       0.19022511 0.6604348 0.51633877 0.0634723
000030 f7 0d 8d be 59 7e ce be ce ff ee 3e 7b 9c d3 3e
       -0.27549717 -0.4033077 0.46679538 0.41330323

lstm.weight_ih_l0 f4 [64, 16]
000000 62 ca d1 be ae 0b 1b be 54 62 37 3e 48 84 dd bd
       -0.40974718 -0.15141174 0.17908603 -0.10816246
000010 47 fc b6 3e 88 15 8c be b6 d2 b6 bd 15 74 b5 bc
       0.35739347 -0.27360177 -0.08926909 -0.022150079
000020 38 73 51 3d 88 0f 91 3e 54 42 b4 3e 59 f7 e3 3e
       0.05113527 0.28332162 0.35206854 0.4452465
000030 ee 7c 6c be 36 ea 4f be 52 20 6c 3d c4 5c 07 3e
       -0.23094532 -0.20304188 0.05764801 0.13218981
000040 97 5e 5f be c1 17 90 be a9 fe 5f 3e ab 29 96 3d
       -0.21813427 -0.28143123 0.21874489 0.07332166
000050 a0 a0 ca bc 76 53 6b 3d 50 45 77 be 85 ea 84 3e
       -0.024734795 0.05745264 -0.24147534 0.25960174
000060 59 2c db 3d 0c 63 bf 3e 42 88 da 3e a5 eb bf 3e
       0.10701818 0.37380254 0.4268208 0.3748447
000070 80 1c d1 be 4a 8f ad be c8 a6 8d 3e 3b e8 97 3b
       -0.40842056 -0.33898383 0.27666306 0.0046358383
000080 cf 3b bc be 20 8b e0 be 4a 4f e9 3d ec 7c 83 bd
       -0.3676438 -0.43856144 0.11392076 -0.06420311
000090 4e 3d b6 3d 44 1d 1e 3d 3a 06 08 3e bf 99 f4 bb
       0.08898412 0.03860213 0.13283625 -0.007464617
0000a0 d5 52 90 3e 91 67 ab 3e de da b4 3d 57 19 5f 3e
       0.28188196 0.33477452 0.08830808 0.2178701
0000b0 9c 80 c3 be af 9a 94 bd 60 35 cc 3e 96 37 fe 3d
       -0.3818406 -0.07256066 0.39884472 0.12412946
0000c0 17 a9 45 3d da b1 16 be 6b b8 85 bd 11 46 7b be
       0.04825696 -0.14716282 -0.065293156 -0.24538447
0000d0 b0 eb d0 3d ab 5b 8a bd 7f a0 af be 3e 16 8a be
       0.10201204 -0.067557655 -0.34302136 -0.26970094
0000e0 29 ee 04 bd 99 4d f7 3d 42 7e 15 3e 61 81 47 bd
       -0.03245369 0.120753475 0.14598945 -0.04870737
0000f0 7e cf 40 3e c0 49 70 be 0d a5 1b 3e ec 70 13 be
       0.18829152 -0.23465633 0.1519968 -0.14398545
000100 7a 23 9b bd 14 99 93 bc 83 70 06 3e b2 3d 90 3d
       -0.07575126 -0.01801733 0.13128857 0.070430174
000110 fc 06 e5 3c 08 b5 59 3c 41 5e 61 3e 3f b8 e0 ba
       0.027957432 0.01328779 0.22008611 -0.0017144753
000120 67 d3 70 bd 3b b1 36 be 5e 20 7b 3e 3c 30 ca 3e
       -0.05879536 -0.17841046 0.24524066 0.39489925
000130 aa 3b 80 3d f2 f1 fb bd 45 b0 fc bd d5 93 43 3e
       0.0626138 -0.12302007 -0.12338308 0.19099362
000140 0a 84 05 be c4 78 1e be 04 a4 4e 3e 11 14 d1 be
       -0.1303865 -0.15475756 0.20179754 -0.40835622
000150 2f 7a e1 3d 93 b5 7d be 34 54 fe 3d a1 ae 75 be
       0.11009633 -0.24776296 0.12418404 -0.23992397
000160 43 f4 39 3e e0 5d cb 3d 7a 4b 8d bd f2 68 79 3e
       0.18159585 0.099300146 -0.06899162 0.2435644
000170 38 13 16 be 9a 04 c5 bc 76 4e d2 3e 03 56 b5 3d
       -0.14655769 -0.024050046 0.41075486 0.08854296
000180 27 6c c2 be 40 09 2e be ea 12 03 3d 20 cd ac be
       -0.3797314 -0.16995716 0.03200046 -0.33750248
000190 1a 80 28 bd c4 66 17 3e 0a 18 11 be 76 6d 21 be
       -0.041137792 0.14785296 -0.14169326 -0.15764412
0001a0 78 60 88 3e 15 9d 17 bd 7c ca 8f 3e 55 38 d6 3e
       0.266361 -0.03701504 0.2808417 0.41839853
0001b0 7f a8 96 3c e6 cd db be 8e aa ef 3c 36 6b f6 bc
       0.018390892 -0.42930526 0.029256132 -0.030080419
0001c0 13 13 d2 bd b5 e0 37 be ba e1 29 3e e5 83 5f be
       -0.10257544 -0.17956813 0.16590014 -0.21827658
0001d0 90 e8 2d be 35 63 35 3d ae 3b 6d bd e9 15 2d bd
       -0.16983247 0.044284064 -0.057918243 -0.042257223
0001e0 53 96 9c 3e 16 9e cc bd ee fa 9c 3b a4 21 b1 bd
       0.30583438 -0.0999109 0.0047906553 -0.086489946
0001f0 12 03 5d 3d bc 2f f9 3c 2a 52 d2 3d 2d 20 a4 3d
       0.053958006 0.03041827 0.10269578 0.080139495
000200 ce df 71 be 0b 8e f4 bd 2f 5d c1 3d f4 39 55 be
       -0.23620531 -0.11941155 0.094416015 -0.20822889
000210 b9 75 cc 3e 3b 50 b0 bd 0b 5c 25 be f3 54 9b bc
       0.39933565 -0.08609053 -0.16148393 -0.018961405
000220 69 7f f0 3e c4 85 38 3e 81 57 a2 3e bd f0 6b 3e
       0.46972206 0.18019778 0.31707385 0.23041053
000230 ce cf 02 be 71 ce 1f bd a9 68 d6 3e 94 35 7e 3e
       -0.12774584 -0.039015237 0.41876724 0.24825126
000240 56 0d ed bd 98 57 8f be 18 76 c7 3d ed f0 00 3c
       -0.11574809 -0.27996516 0.097393215 0.007869941
000250 05 94 28 be fa 0d 35 3e eb 95 8e 3d 0a 7b 29 3e
       -0.16462715 0.17681113 0.06962188 0.16550842
000260 08 87 9b bd 76 6a 5e bd f9 3e a8 bc cf 3c 2b 3d
       -0.075941145 -0.054300748 -0.02053784 0.04180604
000270 be bb 6d 3d 42 48 6a be 19 df 22 bd 79 e6 26 be
       0.058040373 -0.22879127 -0.039763544 -0.16298856
000280 da cc 3c 3d 80 3a f1 bd 45 2b 49 3e 63 79 6e 3d
       0.0460938 -0.11778736 0.19645412 0.058221232
000290 2f 00 2b be 69 26 87 bd 63 15 03 3e ce 28 72 3d
       -0.16699289 -0.06599123 0.12801127 0.059120946
0002a0 0e 3d 39 3d 27 c3 95 3e 0c 64 01 be 38 6d 76 bd
       0.045224242 0.29250452 -0.12635821 -0.060162753
0002b0 5e 12 7f be 8e f4 3a be 49 d8 ad bd dd 58 ef bd
       -0.2490935 -0.18257353 -0.08488519 -0.11686871
0002c0 ec 38 03 3e 5b 50 34 be 86 cc ea bc 18 88 0d bc
       0.12814683 -0.17608778 -0.028661977 -0.008638404
0002d0 79 11 09 be 51 e2 a1 be 8c e2 ca bd 99 8f e1 be
       -0.13385572 -0.31617978 -0.09906492 -0.4405487
0002e0 1a c2 98 3e ba be 11 3e 09 24 23 3e ca 68 03 3e
       0.29835588 0.14232913 0.15931715 0.12832943
0002f0 f8 b5 19 bd ba 3c 81 bd 08 dc 8a 3d b4 96 41 bd
       -0.037527055 -0.06310411 0.06780249 -0.047262862
000300 54 1d 82 be d9 83 81 bd 3e d9 de 3d 4f 14 49 be
       -0.25413 -0.06323976 0.108812794 -0.19636653
000310 ba 20 95 bb 01 ed e7 3d 3b a2 73 be 8d e2 fe 3d
       -0.0045510205 0.11324502 -0.23792355 0.12445555
000320 6b 32 71 3e 20 ad 87 3e 26 8f 24 3e bf e0 ca 3e
       0.23554389 0.2649927 0.16070232 0.39624593
000330 db 79 94 bd dd c3 e3 bd 7e e2 90 bd 90 fa bd 3e
       -0.072498046 -0.11121342 -0.0707445 0.37105227
000340 81 14 48 3e 50 a2 5d 3e c8 ee 2e 3e 37 a8 0d 3e
       0.19539072 0.21643949 0.17083275 0.138337
000350 5d 80 01 be b6 49 98 3c ad 08 20 3e 58 0a 95 3e
       -0.12646623 0.018589836 0.1562831 0.29109454
000360 69 c1 25 be 7a 1a 4c be 54 ff 2b 3e 01 3f ac 3e
       -0.16187061 -0.19931975 0.16796619 0.33641818
000370 8b 77 eb bd 5d c9 86 be a3 4b 6c be 80 e9 96 bd
       -0.114974104 -0.26325503 -0.23075728 -0.07368755
000380 d2 a5 09 3d 45 a3 aa be 6c 18 27 be 00 bf 20 be
       0.033605404 -0.3332769 -0.1631791 -0.1569786
000390 9c f9 12 3d cd 00 60 3e 7a dc 7b 3d 1b 40 eb bc
       0.035882577 0.21875305 0.06148956 -0.028717091
0003a0 88 c2 6b bc 1c 23 bf bc f7 3a 2b bd 4e 86 56 3d
       -0.014389642 -0.023332171 -0.04180428 0.052374177
0003b0 dd 64 9c be 3b 69 30 bd df 52 97 3e f9 b3 94 3e
       -0.30545703 -0.043069106 0.29555413 0.29043558
0003c0 5b e8 6f be b6 4f 90 be 2a 05 0b 3e 31 b2 56 bd
       -0.2342848 -0.28185815 0.13576189 -0.05241603
0003d0 f8 83 e6 3e a4 4f 9a be 29 00 c9 be ee a7 7e be
       0.4502256 -0.30138886 -0.39257935 -0.24868748
0003e0 be b7 31 3e 62 fc a2 3e d1 19 e8 3e 17 7a d4 3e
       0.17355248 0.31833178 0.45332196 0.41499397
0003f0 7e 71 93 be 2d e4 fd be 01 74 be 3e 9f 99 f1 3e
       -0.28797525 -0.49588147 0.3719788 0.47187516

lstm.weight_hh_l0 f4 [64, 16]
000000 0e 66 81 be 93 e8 0b 3e c3 28 fd 3e 67 fb 09 3f
       -0.25273174 0.13662939 0.4944516 0.53899235
000010 f4 00 df 3e d7 2e 50 3e a9 7c c8 be 8a e5 43 be
       0.43555415 0.20330368 -0.39157608 -0.19130531
000020 01 3b 3b 3d 50 5d 13 bf 66 c3 90 be 6e 55 df be
       0.045710567 -0.5756426 -0.28274077 -0.43619865
000030 46 7c 16 3f 16 1d 1d be 5a 32 85 be 58 f7 87 3e
       0.58783376 -0.15343127 -0.26014978 0.26555896
000040 cb 07 86 be 4b be 4d be 2f 91 db 3e cc f4 c7 bc
       -0.2617782 -0.20092122 0.42884204 -0.02440872
000050 13 4e 74 3e b4 83 1d bd 32 f7 f5 bd 06 e6 9d be
       0.23857908 -0.03845568 -0.120100394 -0.30839556
000060 6d 9e ad 3e 66 56 bf be e5 48 5d be 07 9a 76 be
       0.33909932 -0.37370604 -0.21609838 -0.24082194
000070 d3 17 88 3e c8 cf b4 be e4 33 8b be c2 eb 1f bd
       0.26580676 -0.35314775 -0.27188027 -0.039043196
000080 74 48 cd be 72 5b eb 3d 68 7d fb 3d bc 8b 75 3e
       -0.4009434 0.11492051 0.12279779 0.23979086
000090 48 18 1d 3e 16 22 dd 3d 5b f0 ed bc e7 51 b6 be
       0.15341294 0.10797517 -0.029045274 -0.35609362
0000a0 fb 4e 86 3e 66 fb a2 be 0b 90 d6 be e0 e1 31 bc
       0.26232132 -0.31832427 -0.4190677 -0.010857075
0000b0 f2 1a f4 3d cf 45 ba be 9e 38 4c be b2 c1 8c 3d
       0.11919202 -0.36381385 -0.19943473 0.06872882
0000c0 5e 2a bb 3d cb ff 3a 3e 19 8d 02 be 32 52 c2 3d
       0.0913894 0.1826164 -0.12749137 0.09488334
0000d0 b5 ca 16 3e c8 4b c8 3d 72 7f 28 3d d5 33 48 be
       0.14725764 0.09780079 0.041137166 -0.19551022
0000e0 80 83 66 be b8 94 3f be 4e 53 0c be 04 fe ac be
       -0.22511101 -0.18709075 -0.13703653 -0.3378755
0000f0 46 87 50 3c 86 9c fa bc 35 e5 34 be e9 40 9a 3e
       0.012727564 -0.030592214 -0.1766556 0.30127648
000100 ab 0e 03 be 68 82 48 be 18 2d 26 3e 8a 4a df 3d
       -0.12798564 -0.19580996 0.1622814 0.10902889
000110 16 f2 ad b8 16 11 17 be f4 07 e0 bd f1 7f a3 bd
       -8.294375e-05 -0.14752612 -0.10939017 -0.07983387
000120 9e 9b 26 3e fd a8 b4 3d 49 c0 82 bd b8 ea 8a 3d
       0.16270301 0.088212945 -0.06384332 0.0678305
000130 14 83 d5 3d aa aa ff 3d 8e d5 19 be 62 bf 85 be
       0.10425392 0.124837235 -0.15022871 -0.26122576
000140 fa a5 35 3c 56 56 83 be be 5d 34 3e f6 bc 77 3e
       0.011086935 -0.25651807 0.17613885 0.24193177
000150 56 8d 45 3e a1 64 fa 3d 1f 9f 84 be d2 5b b4 be
       0.19292197 0.12226225 -0.2590265 -0.35226303
000160 fb 0b a9 3e a5 2a 5f be 59 76 06 be fd be 14 be
       0.33016953 -0.21793611 -0.13131084 -0.14525981
000170 8c 78 72 3e 2b 00 e9 3c c9 05 08 3d f0 8c 21 bc
       0.23678797 0.028442463 0.033208642 -0.009860262
000180 67 cd c3 be 3a 45 57 be 83 e3 ac 3e 30 2c c2 3e
       -0.38242647 -0.21022502 0.33767328 0.37924337
000190 aa f8 c0 3c f1 de 8a 3e 64 05 33 bd 45 37 e1 3d
       0.023556072 0.27123216 -0.043706313 0.1099687
0001a0 22 3b 4d 3e 3f 01 2d be c1 0c 96 be 4e ee 47 be
       0.20042089 -0.16895007 -0.29306605 -0.195245
0001b0 fa 3f d3 3d b7 96 cd bd 8f 66 80 be 8c 9e 2a be
       0.10314937 -0.10038512 -0.25078246 -0.16662043
0001c0 6e dd ca 3e 86 c3 91 3e 47 ee 27 3e b2 e3 21 3e
       0.39622062 0.28469485 0.1639949 0.15809515
0001d0 f5 45 18 3d b6 22 dd bd 83 07 2e be f0 2c 8e be
       0.03717609 -0.10797636 -0.16995053 -0.2776866
0001e0 27 55 31 be 47 a5 41 3e e1 72 6c be 56 1d 33 3d
       -0.1731764 0.18910705 -0.23090698 0.04372915
0001f0 4c fa 07 be 79 ce 68 be d2 e1 68 bc 55 21 36 3e
       -0.13279074 -0.22735013 -0.014213996 0.17786153
000200 72 df ef be 16 33 de 3d 4b 81 a5 3e 21 8e 06 3f
       -0.46850163 0.108495876 0.32325205 0.5256062
000210 f3 d0 d1 3e ae c4 80 3e 25 55 ae be dc fb 00 bf
       0.40979728 0.25150055 -0.34049335 -0.50384307
000220 3b ce a8 3c 9d 9b e1 bd 1a 46 16 bf a2 d0 a1 bd
       0.02060615 -0.11016009 -0.58700716 -0.07901122
000230 80 ad 0d 3f d7 80 8a be cd 7b 29 be ca f3 05 3e
       0.55342865 -0.27051422 -0.16551133 0.1308128
000240 01 5b a7 3e f9 8d 7a 3e 98 10 2b 3e 84 87 61 be
       0.32686618 0.24468221 0.16705549 -0.22024351
000250 45 ec 21 3e 3e 25 ef bd 06 18 80 3d 9d 19 2a 3e
       0.15812786 -0.11677025 0.06254582 0.16611333
000260 0b ff 55 be 1d 51 35 3e 54 cc 2a 3e 62 e6 1e 3e
       -0.20898072 0.17706724 0.16679507 0.15517572
000270 cb c3 2b 3e 6b db 8f bd ec 99 ac 3a 64 4f 84 3e
       0.16773908 -0.070242725 0.0013168431 0.2584182
000280 60 a5 1b 3e 7a dc 35 be 52 b3 01 3e 7c ef 41 3d
       0.15199804 -0.17759886 0.12666062 0.04734753
000290 9e d5 30 be 89 34 27 be 67 ce 60 be d6 5b 9a be
       -0.17268988 -0.16328634 -0.21953736 -0.3014819
0002a0 9a be 5e 3d 07 32 25 be d7 75 65 be 53 2e 51 be
       0.05438099 -0.16132365 -0.22408234 -0.20427828
0002b0 f3 eb 61 3c 76 8a a6 bd a4 ce 62 3e 3d 8b b3 3e
       0.013789165 -0.08131878 0.2214914 0.35067168
0002c0 53 18 87 be 65 a2 80 be 0a 00 49 3e bd 16 8a 3e
       -0.26385745 -0.25123897 0.19628921 0.26970473
0002d0 5d 55 09 3e f0 cd 32 3e d4 23 1c bd a9 cc fd bd
       0.1341147 0.17461371 -0.038120106 -0.123925515
0002e0 40 7d 80 be 2d 6f 60 be 3a 24 a8 be e2 88 af be
       -0.25095558 -0.2191741 -0.3284014 -0.3428412
0002f0 1c 5c 6f 3c b1 2b bc 3d e9 ce ac be 89 fb 64 3d
       0.014609363 0.09188021 -0.3375161 0.055903945
000300 da a0 fb bc 14 cb 2d 3e 2d ec 0e 3e 4b d0 8b 3e
       -0.030716348 0.16972 0.13957281 0.27307352
000310 d5 3c 65 3e 65 c7 9d 3d 25 7c 1c be 8a 07 6f be
       0.22386487 0.07704047 -0.15281732 -0.2334272
000320 25 57 d6 3d f0 c4 33 be 7c 86 f1 bd 5f 0b b5 be
       0.1046584 -0.17555594 -0.11793229 -0.35360238
000330 71 60 bc 3d 41 56 89 be 1f 56 b1 bd e3 8c 19 3d
       0.09198082 -0.2682362 -0.086590044 0.037487876
000340 9c 50 14 be b9 08 a3 be 60 85 4f 3e a3 18 7e be
       -0.14483875 -0.31842592 0.20265722 -0.24814086
000350 49 4b fe 3d b1 79 b6 3e 77 d1 9f be 1f bb 82 bd
       0.12416703 0.35639718 -0.31214496 -0.06383347
000360 97 e2 01 bd a7 e6 68 3e cd fb 96 bd d0 84 ff 3d
       -0.031710234 0.22744237 -0.07372246 0.12476504
000370 6c b2 18 3e ca 51 8c be 31 24 40 be e7 47 2c be
       0.14911813 -0.2740615 -0.18763806 -0.16824304
000380 50 14 df be 1b 98 32 bd 88 5b 8c 3e 98 19 d5 3d
       -0.43570185 -0.04360209 0.27413583 0.10405272
000390 f0 e1 c0 3e 79 06 48 be 9e 23 dd bd 87 d3 96 be
       0.37672377 -0.19533719 -0.10797809 -0.29458258
0003a0 56 8b c8 3e a7 e1 9b 3c e0 dd cf 3d 7e da 02 3e
       0.39168805 0.019028498 0.10149741 0.1277866
0003b0 a9 b0 66 3e d3 ee 6c 3d 49 90 af be 68 ce 0d be
       0.22528328 0.057844948 -0.34289768 -0.13848269
0003c0 a6 76 8d be 1e 78 6f be fb 3a b9 3e b3 59 7e 3d
       -0.27629584 -0.23385665 0.3617781 0.062097263
0003d0 47 4b 3d 3e 75 03 c3 3e e7 fa 71 be a2 4d e0 be
       0.18485747 0.38088575 -0.23630868 -0.4380923
0003e0 02 6c 99 bc 57 ed 8b be 77 51 21 be f1 2e ae be
       -0.01872826 -0.27329513 -0.15753733 -0.34020188
0003f0 50 2b 9a 3e 79 34 62 be b5 92 8d be 75 86 32 3e
       0.3011117 -0.22090329 -0.2765099 0.17434104

lstm.bias_ih_l0 f4 [64]
000000 6e 1a 4b 3e c9 18 4e 3d 43 1c 3b 3e 61 f3 92 3d
       0.19834301 0.050316606 0.182725 0.07175327
000010 eb cf ab 3d 2c 59 8d 3e 72 ef d2 3d 3a 17 cb 3d
       0.083892666 0.27607095 0.10299577 0.099165395
000020 06 ab d8 3e 28 e5 bf bd 98 df 25 3e 50 44 cc bd
       0.4231798 -0.0936988 0.16198575 -0.09973967
000030 f6 be ae 3e 52 02 b0 3d 59 a9 39 bc fb 23 d4 3c
       0.34130067 0.085941926 -0.0113318795 0.025896063
000040 81 08 18 3e 5b e4 f7 bd f3 db 46 bd 4a 93 eb 3b
       0.14846994 -0.12104102 -0.048549604 0.007189189
000050 66 bd 25 bd 73 8e 22 3e 67 2a c6 bd 85 44 8b 3c
       -0.040463828 0.15874653 -0.09676056 0.017000446
000060 35 44 85 bd 89 a6 01 be d5 39 39 3e 9c a5 1d 3e
       -0.0650715 -0.12661184 0.18088467 0.15395206
000070 03 08 d1 3d 89 2f 7d 3e 17 e7 4c bd c3 5a 80 3e
       0.10206606 0.24725164 -0.050025072 0.25069246
000080 96 77 56 be 58 77 26 bd f5 e6 aa bd 2c d2 48 3e
       -0.20944056 -0.04064116 -0.08344833 0.19611424
000090 f1 7e 69 3e 4e 03 46 be ad 1c f4 3d 01 bf 17 3e
       0.2280233 -0.19337198 0.11919532 0.14818956
0000a0 d2 06 e5 bd 5a 24 73 3c 41 ba 58 be 95 da 8b 3d
       -0.111829415 0.01484021 -0.211648 0.068288006
0000b0 e1 d2 7b be 65 d0 07 bd 99 4e 57 be bd 80 59 3d
       -0.24592163 -0.033157725 -0.21026076 0.05310129
0000c0 3d 43 0c 3f 31 e6 46 3d cb 19 24 3e f7 df d0 bd
       0.547901 0.04855937 0.16025464 -0.10198968
0000d0 c7 36 06 be 41 00 51 3e dd d1 cd 3e ad 11 07 3e
       -0.13106833 0.20410253 0.40199175 0.13190337
0000e0 d9 03 7c 3e 84 7b 1c be 2e 07 32 ba 1f ef 0b 3e
       0.24610843 -0.15281492 -0.0006791231 0.13665436
0000f0 c9 e5 b9 3e 93 b1 76 3e 44 ff 2c 3e 20 9f c7 3d
       0.36308125 0.24091177 0.16894251 0.097471476

lstm.bias_hh_l0 f4 [64]
000000 57 e1 63 3e 3e 4b 96 3d 57 5f bc 3e ee 88 a2 3d
       0.22253929 0.0733857 0.3679149 0.079362735
000010 87 28 91 3e 51 ab a3 bc 45 5b a5 3e 70 bf 52 3c
       0.28351232 -0.019979151 0.32296196 0.012863025
000020 07 8f 17 3e 0f 22 d1 bd 9e 21 6c 3d 67 0d a0 3e
       0.14800654 -0.10211574 0.057649247 0.31260225
000030 20 9f 27 bd 59 c3 1f bc a0 92 b9 bd d1 c6 e0 3e
       -0.040923238 -0.009751164 -0.090611696 0.43901685
000040 8c 98 8f 3e bb 83 27 be f7 e8 a6 3d a1 88 df 3d
       0.28046072 -0.16358845 0.08149903 0.10914732
000050 52 73 22 be 24 cc ab 3b 2c ac 76 bd 39 5b c0 bd
       -0.15864304 0.0052428413 -0.06022279 -0.09392399
000060 91 a5 73 bc 6a 36 73 3e 9b 03 1c be 32 b5 dd bd
       -0.014871017 0.23751226 -0.1523575 -0.10825576
000070 b3 71 06 be 7e 3b 98 39 88 87 29 3e 85 22 88 bd
       -0.1312931 0.00029036024 0.16555607 -0.06647209
000080 08 07 3d be a4 2f 16 be 85 00 13 3e 18 9b 99 bc
       -0.18459713 -0.14666611 0.14355667 -0.018750712
000090 72 2c 6f 3c b2 ad 33 3d db 3e e5 3d 19 4c 6b be
       0.014597999 0.04386682 0.11193629 -0.22978248
0000a0 8d 27 33 3e 87 b4 92 be ef 24 5a be 95 78 77 be
       0.17495556 -0.28653356 -0.21303152 -0.24167092
0000b0 64 5e ea 3d 8b 66 47 be c5 25 c0 3d 55 4c b3 3d
       0.11443785 -0.19472711 0.09382204 0.087547936
0000c0 4c 15 d0 3e cd 45 cd 3e 35 90 b4 3e 5a 55 d0 3c
       0.40641248 0.40092316 0.3526627 0.025431324
0000d0 13 b5 35 3e 60 f8 4d bd dc 07 93 3d 49 e2 36 3e
       0.17744856 -0.050285697 0.071792334 0.17859758
0000e0 cb d8 cf 3e da e6 3a be b1 f7 85 3d 78 1e 46 3e
       0.40595087 -0.18252125 0.06541384 0.1934756
0000f0 b1 f8 09 3d 58 45 7b 3c a3 b5 90 bd ba 49 06 3f
       0.033684436 0.015336357 -0.070658945 0.5245625

fc2.weight f4 [3, 16]
000000 3c 28 4d 3f be 1f b5 3e cc 3f ec be bc 89 57 3e
       0.8013952 0.3537578 -0.46142423 0.21048635
000010 e7 e4 f2 3d 5d de 5c be 5f 88 42 3e f5 7c a5 be
       0.11860066 -0.215692 0.18997334 -0.32321897
000020 38 9c 8b be 66 aa 90 be 8f 6d 91 be 88 5a 7c be
       -0.27267623 -0.28255004 -0.284039 -0.2464391
000030 9a 5e 9b be 9f 40 06 3e 77 ae 58 3e 8e 7b e7 3e
       -0.30345613 0.13110588 0.21160303 0.45211452
000040 33 db f2 be 5a 3b 12 3e a6 44 6b be 8d 0d ef bd
       -0.4743286 0.14280453 -0.22975406 -0.116725065
000050 b3 1a ba 3d b6 5d bd be c0 e9 da 3e ee 98 96 3e
       0.09087124 -0.36985558 0.42756462 0.2941355
000060 ab 22 1e 3e d7 10 7a 3c 43 81 86 3d c2 d7 78 bd
       0.15442912 0.015262804 0.065676235 -0.060752638
000070 a9 16 b0 3e 80 71 13 3e 83 fd a8 3e e6 8b b3 3e
       0.34392288 0.14398766 0.33005914 0.35067672
000080 87 c9 18 bf 0d a1 1d bf fa 0b 1b 3e 19 36 be be
       -0.59682506 -0.6157387 0.15141287 -0.37150648
000090 84 f2 95 3e eb 69 0c 3f 89 b7 f8 be dc fe 4c 3e
       0.29286587 0.5484912 -0.48577526 0.20019096
0000a0 37 68 04 be 42 2f d7 bd df ba 57 3e 68 52 9b 3e
       -0.1293038 -0.105070606 0.2106738 0.30336308
0000b0 1c 32 91 3e 4a c9 0d be ae d7 cb be aa 09 4a bf
       0.28358543 -0.13846317 -0.39812988 -0.78920996

fc2.bias f4 [3]
000000 a2 a5 cd bd 77 32 79 3e ed 05 13 be
       -0.100413576 0.24335657 -0.1435773
