asl-sign-language-detector-python/models/lstm_model_2.pth (torch, 11326 bytes, 8 tensors)

fc1.weight f4 [16, 2]
-0.46158725 0.7565438 -0.5393513 0.88486725 -0.21750562 0.3440711 -0.1366269 0.36218914
0.83396673 0.30070752 0.088362895 0.3461856 0.4803841 -0.054883078 -0.17498955 -0.012090906
-0.80444944 0.80652374 -0.79958 -0.00011266136 0.7086385 -0.21132135 -0.02598432 -0.5971134
0.23632292 -0.52398396 -0.52941024 0.9248624 0.38950843 -0.088769175 0.01412125 -0.016342536
00000000: 2a55 ecbe dbac 413f ed12 0abf a986 623f
00000010: cbb9 5ebe 162a b03e ece7 0bbe db70 b93e
00000020: d87e 553f 56f6 993e 9bf7 b43d 3d3f b13e
00000030: e8f4 f53e 14cd 60bd 7630 33be ef18 46bc
00000040: 66f0 4dbf 5778 4e3f 46b1 4cbf 9b44 ecb8
00000050: 5569 353f a064 58be 12dd d4bc 6cdc 18bf
00000060: a3fe 713e d023 06bf 6e87 07bf c8c3 6c3f
00000070: a66d c73e 9dcc b5bd d15c 673c c8e0 85bc

fc1.bias f4 [16]
-0.20062932 -0.49799332 -0.6198964 -0.60157233 0.120032966 0.16938648 -0.60652953 -0.33710405
0.13941337 0.34133133 -0.40765125 -0.32317713 0.35337645 0.5794638 -0.5861646 -0.7435821
00000000: c671 4dbe fbf8 febe 88b1 1ebf a500 1abf
00000010: d8d3 f53d a673 2d3e 8545 1bbf e798 acbe
00000020: 61c2 0e3e fbc2 ae3e aab7 d0be 7977 a5be
00000030: c2ed b43e bd57 143f e20e 16bf 665b 3ebf

lstm.weight_ih_l0 f4 [64, 16]
-0.39593276 -0.20948295 -0.19570549 -0.40255076 -0.029891543 0.21904421 -0.15453023 -0.13778415
-0.38727725 -0.084545575 -0.19375095 0.07972651 0.084395885 0.17285629 -0.26606777 0.044462025
-0.042294085 -0.003093693 -0.35414287 0.011743147 0.088892505 0.018856728 -0.2655707 -0.16800247
-0.24808104 -0.021120539 -0.12143416 -0.023441512 0.378235 -0.03347635 -0.34519887 -0.27967995
0.036263097 -0.034150466 -0.54502857 -0.29972914 0.4887352 0.24412973 -0.282556 -0.3077462
0.14838952 0.27640676 -0.16336082 -0.093594566 0.22084956 0.24203308 -0.5247073 -0.075792216
0.033119816 -0.3188185 -0.28581902 0.103163555 -0.07648042 0.31288904 0.15048575 -0.18361251
0.14180675 0.23260146 0.101906486 -0.2281609 -0.07000748 0.28824505 -0.18266588 -0.3037542
-0.018380785 -0.033510383 0.12029285 -0.13009879 0.26418024 -0.028477745 -0.17732579 -0.22623993
0.28457913 0.24986275 -0.13660929 -0.13980593 0.04914184 0.39648196 -0.05024917 0.02829036
-0.26635388 -0.39003387 -0.6487534 -0.2105663 0.34412917 0.41142797 -0.43318158 -0.40220675
0.42219442 0.1875577 -0.3940599 -0.60263413 0.45743933 0.41692126 -0.1840016 -0.6510673
-0.018555617 -0.20089282 -0.06382231 -0.13949381 0.3696663 0.00712487 -0.2857973 -0.07269627
-0.17303258 0.13122752 0.2082776 0.057220723 0.32517678 -0.22736675 -0.24011058 0.054771006
-0.16615558 0.0006962256 -0.18112178 -0.37384328 0.19677308 0.4194734 -0.22875462 -0.20135929
0.20171568 -0.037180785 -0.009012062 -0.0049417214 -0.046076868 0.30233946 -0.37724718 -0.40818182
-0.14479066 -0.35981146 -0.11419698 -0.16095756 0.43543214 -0.0414561 0.036641974 -0.35375702
0.06082664 -0.06302474 -0.12226081 -0.22031507 0.13365078 0.3097929 -0.048648916 -0.38160542
0.077952325 -0.19803911 -0.40554518 -0.056959897 0.18317339 0.47813672 -0.36190236 -0.10656623
0.321264 0.27541265 -0.22472988 -0.2609827 0.2156984 0.05951914 -0.40054202 -0.3908227
-0.16667241 -0.13745187 -0.27990678 0.01330037 0.17399397 0.0034702986 -0.29271618 -0.11048215
0.108228974 -0.032132335 -0.18912707 -0.17004365 0.035929795 -0.048459675 0.08057744 -0.16127916
-0.14801821 -0.11288881 -0.1336477 0.07387484 0.24415274 0.16445047 0.20676927 -0.14269225
-0.0063706827 0.12323917 0.14987838 0.091241494 0.27548632 0.21092659 0.1519911 -0.14403176
0.071286365 0.11743076 0.12166888 -0.15892728 0.09961296 0.26852816 0.035728794 -0.061197974
0.3382091 0.13337897 0.07510149 -0.23725556 0.25149858 -0.051994503 0.025125422 -0.020428715
-0.10300161 -0.4370259 -0.2384973 -0.04340869 0.50435686 0.05061173 -0.4616324 -0.3495984
-0.004127909 0.32341328 -0.016029676 -0.43257308 -0.03419162 0.007397652 -0.11328177 -0.42401642
0.12840907 0.10684703 -0.0041785645 -0.024895918 0.094916664 0.22132649 -0.22355795 -0.29152542
0.116654985 0.13247283 -0.11808452 -0.0758928 -0.17165202 0.23819618 0.0030732548 0.09407527
-0.41458774 -0.23064908 -0.14085923 -0.24879397 -0.22139437 0.16712141 -0.17830516 -0.010590886
-0.14541936 -0.027804898 0.15816 -0.21028021 -0.14206485 0.26149115 -0.035141204 -0.1962522
00000000: b3b7 cabe b382 56be 0567 48be 221b cebe
00000010: 1cdf f4bc 204d 603e 2c3d 1ebe 4a17 0dbe
00000020: 3449 c6be 3b26 adbd a666 46be a747 a33d
00000030: c0d7 ac3d 3d01 313e 093a 88be d01d 363d
00000040: 903c 2dbd 8ebf 4abb 3752 b5be 5466 403c
00000050: 460d b63d 6d79 9a3c e2f8 87be d708 2cbe
00000060: f508 7ebe fb04 adbc 79b2 f8bd 6a08 c0bc
00000070: 05a8 c13e 7f1e 09bd e8bd b0be 3632 8fbe
00000080: 9d88 143d 5ce1 0bbd fe86 0bbf 1976 99be
00000090: 803b fa3e 25fd 793e 2eab 90be e990 9dbe
000000a0: 6cf3 173e 3085 8d3e 0f48 27be 82ae bfbd
000000b0: 6326 623e 85d7 773e 3853 06bf f338 9bbd
000000c0: a5a8 073d 2e3c a3be df56 92be 6a47 d33d
000000d0: c4a1 9cbd fe32 a03e f018 1a3e eb04 3cbe
000000e0: ca35 113e 142f 6e3e 59b4 d03d 03a3 69be
000000f0: 1560 8fbd db94 933e c40c 3bbe ac85 9bbe
00000100: 4d93 96bc 2f42 09bd 195c f63d 9e38 05be
00000110: a242 873e 294a e9bc e494 35be 71ab 67be
00000120: 5bb4 913e 05dc 7f3e 4ee3 0bbe 4929 0fbe
00000130: f448 493d afff ca3e 13d2 4dbd 2fc1 e73c
00000140: 895f 88be 85b2 c7be b414 26bf b19e 57be
00000150: b331 b03e b0a6 d23e fac9 ddbe 0bee cdbe
00000160: de29 d83e 200f 403e 38c2 c9be 3b46 1abf
00000170: 7d35 ea3e b476 d53e ea6a 3cbe 59ac 26bf
00000180: f301 98bc d9b6 4dbe 45b5 82bd 77d7 0ebe
00000190: e744 bd3e be77 e93b 0654 92be c8e1 94bd
000001a0: 742f 31be 8260 063e b946 553e 4760 6a3d
000001b0: 927d a63e d4d2 68be 8cdf 75be 9057 603d
000001c0: b024 2abe e982 363a fd77 39be 6368 bfbe
000001d0: e27e 493e 38c5 d63e a73e 6abe 2131 4ebe
000001e0: 8e8e 4e3e e14a 18bd 54a7 13bc 2aee a1bb
000001f0: 19bb 3cbd 3dcc 9a3e 8b26 c1be 35fd d0be
00000200: 0144 14be 3539 b8be 1be0 e9bd 0fd2 24be
00000210: f6f0 de3e dfcd 29bd e515 163d a41f b5be
00000220: 5b25 793d 1d13 81bd e063 fabd 469a 61be
00000230: c0db 083e 2d9d 9e3e 1644 47bd c961 c3be
00000240: 78a5 9f3d c4ca 4abe 9ea3 cfbe c84e 69bd
00000250: ce91 3b3e 56ce f43e 444b b9be 653f dabd
00000260: b77c a43e e302 8d3e 971f 66be 869f 85be
00000270: 0be0 5c3e 57ca 733d d813 cdbe ea19 c8be
00000280: 2cac 2abe 2fc0 0cbe f14f 8fbe cce9 593c
00000290: 7a2b 323e f36d 633b e5de 95be 7744 e2bd
000002a0: 27a7 dd3d 329d 03bd 87aa 41be ec1f 2ebe
000002b0: 1f2b 133d a77d 46bd c905 a53d 5d26 25be
000002c0: 1692 17be 4032 e7bd f1da 08be b14b 973d
000002d0: 2d03 7a3e b465 283e 53bb 533e eb1d 12be
000002e0: 29c1 d0bb d164 fc3d b879 193e d2dc ba3d
000002f0: 8b0c 8d3e 24fd 573e 8ea3 1b3e 107d 13be
00000300: 96fe 913d 8a7f f03d 892d f93d d5bd 22be
00000310: e101 cc3d 867c 893e 5b58 123d baaa 7abd
00000320: be29 ad3e 7f94 083e cfce 993d 1ff3 72be
00000330: 6cc4 803e 30f8 54bd d4d3 cd3c 1f5a a7bc
00000340: 82f2 d2bd dcc1 dfbe a338 74be 4fcd 31bd
00000350: 881d 013f 3f4e 4f3d 155b ecbe 90fe b2be
00000360: 6943 87bb 6d96 a53e ab50 83bc 387a ddbe
00000370: 830c 0cbd 0168 f23b 4600 e8bd ae18 d9be
00000380: ab7d 033e 9ed2 da3d 57ec 88bb 86f2 cbbc
00000390: ab63 c23d 69a3 623e 60ec 64be d242 95be
000003a0: cfe8 ee3d f5a6 073e 4cd6 f1bd af6d 9bbd
000003b0: 8cc5 2fbe b3e9 733e a968 493b 89aa c03d
000003c0: d844 d4be 462f 6cbe 673d 10be d9c3 7ebe
000003d0: 35b5 62be e021 2b3e a195 36be 6585 2dbc
000003e0: d0e8 14be 19c7 e3bc b2f4 213e b253 57be
000003f0: 7379 11be 2be2 853e 39f0 0fbd 56f6 48be

lstm.weight_hh_l0 f4 [64, 16]
-0.26295662 -0.17563538 -0.2958659 -0.033678453 0.22095665 -0.24643521 -0.068239756 -0.12526943
-0.034010485 0.073635735 -0.07927977 0.024426108 -0.18913117 5.323138e-06 -0.040163085 0.027831836
-0.3548359 -0.4438124 -0.10739256 0.27818346 0.11732814 0.10967525 0.04893513 0.08631396
-0.21585083 0.53241116 -0.0069478266 0.21195924 -0.34956357 0.5406081 -0.4545263 0.054171834
-0.35611534 -0.28715828 -0.2931599 0.46533343 0.1574896 0.31279528 0.124624275 0.048828118
0.015150668 0.08216492 0.371422 0.26782724 -0.26642266 0.044748887 -0.29020017 0.35278466
-0.30000544 -0.011169199 0.034291957 0.26575363 0.0115727065 -0.33525196 0.16693737 -0.14385818
-0.19357647 -0.1929709 0.06154214 0.30347088 -0.1388455 0.2338537 -0.031463537 0.018848347
0.13614404 -0.04936217 -0.20611109 -0.050339602 0.03821232 0.5545593 0.10132293 0.37392086
0.088414595 0.15382244 -0.032752715 0.09008589 -0.33242935 0.18695183 -0.35641307 0.24920759
-0.25590235 -0.51523 -0.45866495 0.34364682 0.495383 0.3190399 0.50979775 0.058710612
-0.43431145 0.19708298 0.31942388 0.57821447 -0.26890785 0.57559144 -0.26945063 0.46552858
-0.21445023 -0.085417114 -0.009565083 0.0085283015 0.2525157 -0.16922142 0.03369483 -0.12379834
-0.28923264 0.06690452 -0.027328363 0.23072495 -0.1915833 0.32262003 0.080484614 0.17015368
-0.30908215 -0.20880376 0.041229125 0.15496643 0.28412554 -0.21565832 0.45064223 -0.1567559
-0.5899672 0.047596823 0.50100195 0.50582904 -0.15060662 0.22953887 -0.5209185 0.37632605
-0.40172425 -0.16625275 -0.17245463 0.028315378 0.3639596 -0.23957479 0.17918509 0.04105845
0.025053103 0.36402684 0.41220275 0.34116223 0.018128758 0.18198201 -0.2990183 0.26312745
-0.09097811 -0.31407583 0.04993677 0.38166255 0.52631545 -0.23508589 0.1796291 -0.0026623984
-0.5108123 0.42432305 0.30696514 0.17622676 -0.097529344 0.10819966 -0.47677037 0.38577864
-0.17354834 -0.076917775 0.42654037 0.013592122 -0.021670409 -0.46370795 0.13815825 -0.25159743
-0.20999165 -0.1661767 0.21340047 0.12959398 0.18212974 -0.26968294 -0.17543961 0.40374938
0.28639463 -0.07717755 0.24992816 0.2608392 -0.114061154 0.0040219952 -0.067928426 0.25410086
0.46275508 0.14470302 0.17869338 0.0461212 -0.18874043 -0.042599462 0.042249665 0.22318476
-0.057155408 -0.21940416 0.23112783 0.41677287 0.07220802 -0.2534679 0.3031049 -0.10487156
-0.09221496 -0.16077463 0.25581786 0.16699834 -0.34780392 0.14766064 -0.26314375 -0.070653535
-0.16382405 -0.3949361 -0.13847639 0.39777014 0.06065223 0.18135516 0.35700113 -0.026002178
-0.21261366 0.25801843 0.15697016 0.16079068 -0.11627689 0.2747431 -0.28377646 0.4674036
-0.28729826 0.17456517 0.4211763 0.30350822 -0.17938924 -0.17514426 0.27011082 0.16192384
0.29186565 0.2512158 0.2615993 -0.17911905 -0.2068815 0.115615375 0.07525458 -0.079004586
-0.17275572 0.11502069 0.24345742 -0.09282587 -0.10342486 -0.3418472 0.3387375 -0.22871669
-0.09496113 0.21960667 0.02802485 0.21210334 0.21217376 -0.28901935 -0.13633218 -0.037486322
00000000: 40a2 86be c3d9 33be bc7b 97be 6bf2 09bd
00000010: 7642 623e 8359 7cbe 49c1 8bbd a146 00be
00000020: 944e 0bbd 55ce 963d 6f5d a2bd 4319 c83c
00000030: 9aab 41be 689d b236 0c82 24bd 97ff e33c
00000040: 0dad b5be 613b e3be a1f0 dbbd 106e 8e3e
00000050: bc49 f03d 6b9d e03d 3470 483d 60c5 b03d
00000060: 0008 5dbe 194c 083f 98aa e3bb d80b 593e
00000070: fff9 b2be 4b65 0a3f acb7 e8be 49e3 5d3d
00000080: c054 b6be 6906 93be 0e19 96be 2f40 ee3e
00000090: f444 213e b426 a03e 033b ff3d feff 473d
000000a0: 823a 783c 1546 a83d 062b be3e a720 893e
000000b0: 8d68 88be 9c4a 373d 1e95 94be 31a0 b43e
000000c0: 509a 99be 04ff 36bc b975 0c3d dc10 883e
000000d0: 739b 3d3c 25a6 abbe a1f1 2a3e 8f4f 13be
000000e0: e938 46be 2a9a 45be 9c13 7c3d 8960 9b3e
000000f0: 842d 0ebe 5877 6f3e e9df 00bd d967 9a3c
00000100: 5869 0b3e fd2f 4abd c90e 53be e630 4ebd
00000110: 8684 1c3d 99f7 0d3f 6582 cf3d 8e72 bf3e
00000120: b612 b53d a183 1d3e b627 06bd f37e b83d
00000130: 2e34 aabe 4d70 3f3e c67b b6be 4630 7f3e
00000140: a205 83be 1de6 03bf 22d6 eabe 7af2 af3e
00000150: d7a2 fd3e 3359 a33e 1b82 023f 8a7a 703d
00000160: 125e debe 1fd0 493e 878b a33e dd05 143f
00000170: 4aae 89be f659 133f 6ff5 89be c359 ee3e
00000180: d798 5bbe 2bef aebd deb6 1cbc 4aba 0b3c
00000190: bd49 813e 6148 2dbe 9703 0a3d fc89 fdbd
000001a0: 4d16 94be 3d05 893d bbdf dfbc 2943 6c3e
000001b0: 6a2e 44be 742e a53e 1ed5 a43d c43c 2e3e
000001c0: 0440 9ebe a7d0 55be dfdf 283d 85af 1e3e
000001d0: e778 913e 89d5 5cbe 94ba e63e 9e84 20be
000001e0: 1708 17bf e3f4 423d aa41 003f 037e 013f
000001f0: 9f38 1abe 3d0c 6b3e ea5a 05bf cfad c03e
00000200: cdae cdbe 293e 2abe f297 30be a7f5 e73c
00000210: ea58 ba3e 1853 75be 4c7c 373e e82c 283d
00000220: 2a3c cd3c ba61 ba3e 3d0c d33e d1ac ae3e
00000230: c382 943c 7e59 3a3e ed18 99be a4b8 863e
00000240: bb52 babd 8cce a0be 808a 4c3d 4669 c33e
00000250: 9cbc 063f 5bba 70be b1f0 373e a27b 2ebb
00000260: 98c4 02bf df40 d93e 892a 9d3e ca74 343e
00000270: 77bd c7bd c997 dd3d 3f1b f4be c784 c53e
00000280: a8b6 31be 1187 9dbd 8063 da3e 7eb1 5e3c
00000290: 2486 b1bc 216b edbe 5b79 0d3e 61d1 80be
000002a0: 0d08 57be 3a2a 2abe a785 5a3e 49b4 043e
000002b0: 3880 3a3e e213 8abe 71a6 33be 3db8 ce3e
000002c0: 51a2 923e 430f 9ebd 2bed 7f3e b78c 853e
000002d0: e598 e9bd f1ca 833b 0f1e 8bbd 8219 823e
000002e0: 3cee ec3e 072d 143e 66fb 363e 95e9 3c3d
000002f0: 2c45 41be c67c 2ebd fc0d 2d3d 8c8a 643e
00000300: ca1b 6abd 7cab 60be c6ac 6c3e 4163 d53e
00000310: cce1 933d 8bc6 81be 9130 9b3e e7c6 d6bd
00000320: 32db bcbd 1ba2 24be 8ffa 823e 9d01 2b3e
00000330: 5b13 b2be 5a34 173e c7ba 86be cdb2 90bd
00000340: 7ec1 27be 1135 cabe c1cc 0dbe 87a8 cb3e
00000350: 796e 783d 2bb5 393e dac8 b63e 8502 d5bc
00000360: 65b7 59be fe1a 843e c9bc 203e 50a6 243e
00000370: 9422 eebd 21ab 8c3e 264b 91be 864f ef3e
00000380: c218 93be 36c1 323e 6ca4 d73e 6e65 9b3e
00000390: d0b1 37be 0459 33be f74b 8a3e 5dcf 253e
000003a0: 6a6f 953e 5b9f 803e 58f0 853e fc6a 37be
000003b0: bed8 53be c1c7 ec3d 131f 9a3d 28cd a1bd
000003c0: e0e6 30be f88f eb3d e74c 793e 7d1b bebd
000003d0: 6ad0 d3bd 9906 afbe 006f ad3e b534 6abe
000003e0: fb7a c2bd 92e0 603e 5f94 e53c 9e31 593e
000003f0: 1444 593e 58fa 93be aa9a 0bbe 428b 19bd

lstm.bias_ih_l0 f4 [64]
0.15335788 0.35741156 0.5328328 0.08722334 -0.08215399 0.49616987 0.29111317 0.26996002
0.020223502 0.23178354 0.01192191 -0.056494348 0.18687329 0.18616113 0.10878278 -0.1789675
-0.15479042 0.15071777 0.018936766 -0.128773 -0.022068812 0.039611053 -0.04979617 0.008176522
0.13933776 0.1562674 0.057696734 0.23855175 0.040262327 0.28943533 0.18413885 -0.07850452
0.034068767 0.089703836 0.026312599 0.11633022 0.06611256 -0.15967155 -0.16630447 0.19469602
-0.04245572 0.16578256 -0.11771852 0.046363298 -0.097828686 0.046475712 -0.15957719 0.1833941
0.20554657 0.34467074 0.12636954 0.32611048 0.35611588 0.508795 -0.13621359 0.485254
0.41710013 0.48112473 0.29152584 0.07734256 0.30731693 0.48070648 0.07132444 -0.13787627
00000000: d909 1d3e a6fe b63e bb67 083f 27a2 b23d
00000010: 5a40 a8bd fa09 fe3e c90c 953e 3338 8a3e
00000020: c2ab a53c aa58 6d3e 1d54 433c 9e66 67bd
00000030: b65b 3f3e 06a1 3e3e 82c9 de3d 4243 37be
00000040: 6181 1ebe c255 1a3e 4721 9b3c 12dd 03be
00000050: a7c9 b4bc 333f 223d 12f7 4bbd d2f6 053c
00000060: 8fae 0e3e 9004 203e 6953 6c3d e946 743e
00000070: 1cea 243d de30 943e e58e 3c3e fac6 a0bd
00000080: b18b 0b3d a5b6 b73d 858d d73c 8a3e ee3d
00000090: 0666 873d f080 23be b84b 2abe 655e 473e
000000a0: 0de6 2dbd e7c2 293e 6816 f1bd 71e7 3d3d
000000b0: 685a c8bd 515d 3e3d 3468 23be aacb 3b3e
000000c0: cd7a 523e af78 b03e 0467 013e f4f7 a63e
000000d0: d254 b63e 6440 023f 937b 0bbe 3673 f83e
000000e0: 268e d53e fb55 f63e e042 953e c765 9e3d
000000f0: a558 9d3e 291f f63e 8c12 923d 702f 0dbe

lstm.bias_hh_l0 f4 [64]
0.23759751 -0.05660986 0.46366483 0.3016071 -0.047369003 0.33962607 0.2561457 0.34085023
0.052981913 0.3747377 0.08269277 0.04575417 0.26060864 0.04345093 0.2726755 0.10821105
0.24009028 0.18544772 0.09788643 -0.036946997 0.1968828 -0.013203375 -0.16858722 -0.09945743
-0.038244765 0.15916361 0.08099758 0.022857824 -0.024712894 0.09703446 0.058570813 0.05092614
-0.20779333 -0.22069691 -0.17362405 0.034756333 0.07536974 0.07373531 0.16237167 -0.09509819
0.14713539 0.04839692 0.14591868 0.08980437 0.20762269 -0.14722492 -0.14044535 0.18593058
0.37931165 0.058681685 0.2862481 0.297854 -0.03393544 0.68042105 0.14916642 0.28164265
0.061205726 0.25624344 -0.0049858554 -0.15461807 0.37902308 0.2634308 0.28681076 0.29450864
00000000: c34c 733e bedf 67bd 7a65 ed3e 3f6c 9a3e
00000010: 0006 42bd 78e3 ad3e 8725 833e ec83 ae3e
00000020: 9003 593d 9fdd bf3e d45a a93d b968 3b3d
00000030: 7f6e 853e 9af9 313d 209c 8b3e c19d dd3d
00000040: 3ada 753e 02e6 3d3e ae78 c83d bc55 17bd
00000050: a59b 493e f852 58bc 21a2 2cbe 56b0 cbbd
00000060: 8ba6 1cbd c9fb 223e 0fe2 a53d 5540 bb3c
00000070: b272 cabc 01ba c63d f3e7 6f3d ee97 503d
00000080: c6c7 54be 5ffe 61be 81ca 31be a85c 0e3d
00000090: 735b 9a3d 8a02 973d c244 263e d7c2 c2bd
000000a0: a9aa 163e d93b 463d b56b 153e 5beb b73d
000000b0: 0b9b 543e 21c2 16be e8d0 0fbe 9664 3e3e
000000c0: 2335 c23e 355c 703d 1c8f 923e 5280 983e
000000d0: e3ff 0abd 1330 2e3f 15bf 183e 7733 903e
000000e0: dbb2 7a3d 5732 833e 6360 a3bb 3354 1ebe
000000f0: 500f c23e 67e0 863e dcd8 923e d6c9 963e

fc2.weight f4 [3, 16]
-0.1858864 -0.22054432 0.28949317 0.18870527 -0.21752201 -0.6132641 0.14166781 -0.6510173
-0.53381544 -0.6574556 -0.0915878 -0.053103548 -0.39189854 -0.3112384 0.38592178 -0.24674857
-0.03335061 0.008814164 0.34546548 -0.07671087 0.12750621 -0.24332419 -0.00228523 0.29544446
0.09201219 0.43874535 0.2381998 0.30293238 0.23562525 -0.081211835 -0.38067406 -0.018297719
0.2115535 0.3724785 -0.55061275 -0.18980771 0.30676806 0.34446174 -0.5271893 0.26956525
-0.036330406 0.35981572 -0.4375689 0.120816655 -0.13875194 0.4310067 0.26664323 -0.35020736
00000000: 0159 3ebe 5fd6 61be 7338 943e f43b 413e
00000010: 17be 5ebe e0fe 1cbf 5e11 113e 12a9 26bf
00000020: 21a8 08bf 034f 28bf 6292 bbbd 1b83 59bd
00000030: eda6 c8be a45a 9fbe 8a97 c53e a8ab 7cbe
00000040: a69a 08bd 4969 103c dae0 b03e 971a 9dbd
00000050: fd90 023e fa29 79be ccc3 15bb 7f44 973e
00000060: e370 bc3d 3ba3 e03e a6ea 733e f419 9b3e
00000070: bf47 713e 6452 a6bd b6e7 c2be 19e5 95bc
00000080: 7ba1 583e 80b5 be3e f5f4 0cbf f45c 42be
00000090: b410 9d3e 4a5d b03e e1f5 06bf 7504 8a3e
000000a0: 31cf 14bd c439 b83e 0809 e0be b96e f73d
000000b0: fd14 0ebe e9ac dc3e 7685 883e 614e b3be

fc2.bias f4 [3]
0.12348722 0.068642356 0.17440183
00000000: dee6 fc3d 5d94 8c3d 6596 323e
